…
I0510 16:30:43.449759 39557 upgrade_proto.cpp:80] Successfully upgraded batch norm layers using deprecated params.
I0510 16:30:43.451156 39557 net.cpp:51] Initializing net from parameters: 
name: "Caffe_MobileFaceNet"
state {
  phase: TRAIN
  level: 0
  stage: ""
}
layer {
  name: "data"
  type: "ImageData"
  top: "data"
  top: "label"
  transform_param {
    scale: 0.0078125
    mirror: true
    mean_value: 127.5
    mean_value: 127.5
    mean_value: 127.5
  }
  image_data_param {
    source: "/data/vggface2/VGGFACE_train_list-112X96-add.txt"
    batch_size: 64
    shuffle: true
  }
}
layer {
  name: "conv1"
  type: "Convolution"
  bottom: "data"
  top: "conv1"
  param {
    lr_mult: 1
    decay_mult: 1
  }
  convolution_param {
    num_output: 64
    bias_term: false
    pad: 1
    kernel_size: 3
    stride: 2
    weight_filler {
      type: "xavier"
    }
  }
}
layer {
  name: "conv1/bn"
  type: "BatchNorm"
  bottom: "conv1"
  top: "conv1"
  param {
    lr_mult: 0
    decay_mult: 0
  }
  param {
    lr_mult: 0
    decay_mult: 0
  }
  param {
    lr_mult: 0
    decay_mult: 0
  }
}
layer {
  name: "conv1/scale"
  type: "Scale"
  bottom: "conv1"
  top: "conv1"
  param {
    lr_mult: 1
    decay_mult: 0
  }
  param {
    lr_mult: 1
    decay_mult: 0
  }
  scale_param {
    bias_term: true
  }
}
layer {
  name: "relu1"
  type: "PReLU"
  bottom: "conv1"
  top: "conv1"
}
layer {
  name: "conv1_dw"
  type: "DepthwiseConvolution"
  bottom: "conv1"
  top: "conv1_dw"
  param {
    lr_mult: 1
    decay_mult: 1
  }
  convolution_param {
    num_output: 64
    bias_term: false
    pad: 1
    kernel_size: 3
    group: 64
    stride: 1
    weight_filler {
      type: "xavier"
    }
  }
}
layer {
  name: "conv1_dw/bn"
  type: "BatchNorm"
  bottom: "conv1_dw"
  top: "conv1_dw"
  param {
    lr_mult: 0
    decay_mult: 0
  }
  param {
    lr_mult: 0
    decay_mult: 0
  }
  param {
    lr_mult: 0
    decay_mult: 0
  }
}
layer {
  name: "conv1_dw/scale"
  type: "Scale"
  bottom: "conv1_dw"
  top: "conv1_dw"
  param {
    lr_mult: 1
    decay_mult: 0
  }
  param {
    lr_mult: 1
    decay_mult: 0
  }
  scale_param {
    bias_term: true
  }
}
layer {
  name: "relu1_dw"
  type: "PReLU"
  bottom: "conv1_dw"
  top: "conv1_dw"
}
layer {
  name: "conv2_ex"
  type: "Convolution"
  bottom: "conv1_dw"
  top: "conv2_ex"
  param {
    lr_mult: 1
    decay_mult: 1
  }
  convolution_param {
    num_output: 128
    bias_term: false
    pad: 0
    kernel_size: 1
    stride: 1
    weight_filler {
      type: "xavier"
    }
  }
}
layer {
  name: "conv2_ex/bn"
  type: "BatchNorm"
  bottom: "conv2_ex"
  top: "conv2_ex"
  param {
    lr_mult: 0
    decay_mult: 0
  }
  param {
    lr_mult: 0
    decay_mult: 0
  }
  param {
    lr_mult: 0
    decay_mult: 0
  }
}
layer {
  name: "conv2_ex/scale"
  type: "Scale"
  bottom: "conv2_ex"
  top: "conv2_ex"
  param {
    lr_mult: 1
    decay_mult: 0
  }
  param {
    lr_mult: 1
    decay_mult: 0
  }
  scale_param {
    bias_term: true
  }
}
layer {
  name: "relu2_ex"
  type: "PReLU"
  bottom: "conv2_ex"
  top: "conv2_ex"
}
layer {
  name: "conv2_dw"
  type: "DepthwiseConvolution"
  bottom: "conv2_ex"
  top: "conv2_dw"
  param {
    lr_mult: 1
    decay_mult: 1
  }
  convolution_param {
    num_output: 128
    bias_term: false
    pad: 1
    kernel_size: 3
    group: 128
    stride: 2
    weight_filler {
      type: "xavier"
    }
    engine: CAFFE
  }
}
layer {
  name: "conv2_dw/bn"
  type: "BatchNorm"
  bottom: "conv2_dw"
  top: "conv2_dw"
  param {
    lr_mult: 0
    decay_mult: 0
  }
  param {
    lr_mult: 0
    decay_mult: 0
  }
  param {
    lr_mult: 0
    decay_mult: 0
  }
}
layer {
  name: "conv2_dw/scale"
  type: "Scale"
  bottom: "conv2_dw"
  top: "conv2_dw"
  param {
    lr_mult: 1
    decay_mult: 0
  }
  param {
    lr_mult: 1
    decay_mult: 0
  }
  scale_param {
    bias_term: true
  }
}
layer {
  name: "relu2_dw"
  type: "PReLU"
  bottom: "conv2_dw"
  top: "conv2_dw"
}
layer {
  name: "conv2_em"
  type: "Convolution"
  bottom: "conv2_dw"
  top: "conv2_em"
  param {
    lr_mult: 1
    decay_mult: 1
  }
  convolution_param {
    num_output: 64
    bias_term: false
    pad: 0
    kernel_size: 1
    stride: 1
    weight_filler {
      type: "xavier"
    }
  }
}
layer {
  name: "conv2_em/bn"
  type: "BatchNorm"
  bottom: "conv2_em"
  top: "conv2_em"
  param {
    lr_mult: 0
    decay_mult: 0
  }
  param {
    lr_mult: 0
    decay_mult: 0
  }
  param {
    lr_mult: 0
    decay_mult: 0
  }
}
layer {
  name: "conv2_em/scale"
  type: "Scale"
  bottom: "conv2_em"
  top: "conv2_em"
  param {
    lr_mult: 1
    decay_mult: 0
  }
  param {
    lr_mult: 1
    decay_mult: 0
  }
  scale_param {
    bias_term: true
  }
}
layer {
  name: "conv2_1_ex"
  type: "Convolution"
  bottom: "conv2_em"
  top: "conv2_1_ex"
  param {
    lr_mult: 1
    decay_mult: 1
  }
  convolution_param {
    num_output: 128
    bias_term: false
    pad: 0
    kernel_size: 1
    stride: 1
    weight_filler {
      type: "xavier"
    }
  }
}
layer {
  name: "conv2_1_ex/bn"
  type: "BatchNorm"
  bottom: "conv2_1_ex"
  top: "conv2_1_ex"
  param {
    lr_mult: 0
    decay_mult: 0
  }
  param {
    lr_mult: 0
    decay_mult: 0
  }
  param {
    lr_mult: 0
    decay_mult: 0
  }
}
layer {
  name: "conv2_1_ex/scale"
  type: "Scale"
  bottom: "conv2_1_ex"
  top: "conv2_1_ex"
  param {
    lr_mult: 1
    decay_mult: 0
  }
  param {
    lr_mult: 1
    decay_mult: 0
  }
  scale_param {
    bias_term: true
  }
}
layer {
  name: "relu2_1_ex"
  type: "PReLU"
  bottom: "conv2_1_ex"
  top: "conv2_1_ex"
}
layer {
  name: "conv2_1_dw"
  type: "DepthwiseConvolution"
  bottom: "conv2_1_ex"
  top: "conv2_1_dw"
  param {
    lr_mult: 1
    decay_mult: 1
  }
  convolution_param {
    num_output: 128
    bias_term: false
    pad: 1
    kernel_size: 3
    group: 128
    stride: 1
    weight_filler {
      type: "xavier"
    }
    engine: CAFFE
  }
}
layer {
  name: "conv2_1_dw/bn"
  type: "BatchNorm"
  bottom: "conv2_1_dw"
  top: "conv2_1_dw"
  param {
    lr_mult: 0
    decay_mult: 0
  }
  param {
    lr_mult: 0
    decay_mult: 0
  }
  param {
    lr_mult: 0
    decay_mult: 0
  }
}
layer {
  name: "conv2_1_dw/scale"
  type: "Scale"
  bottom: "conv2_1_dw"
  top: "conv2_1_dw"
  param {
    lr_mult: 1
    decay_mult: 0
  }
  param {
    lr_mult: 1
    decay_mult: 0
  }
  scale_param {
    bias_term: true
  }
}
layer {
  name: "relu2_1_dw"
  type: "PReLU"
  bottom: "conv2_1_dw"
  top: "conv2_1_dw"
}
layer {
  name: "conv2_1_em"
  type: "Convolution"
  bottom: "conv2_1_dw"
  top: "conv2_1_em"
  param {
    lr_mult: 1
    decay_mult: 1
  }
  convolution_param {
    num_output: 64
    bias_term: false
    pad: 0
    kernel_size: 1
    stride: 1
    weight_filler {
      type: "xavier"
    }
  }
}
layer {
  name: "conv2_1_em/bn"
  type: "BatchNorm"
  bottom: "conv2_1_em"
  top: "conv2_1_em"
  param {
    lr_mult: 0
    decay_mult: 0
  }
  param {
    lr_mult: 0
    decay_mult: 0
  }
  param {
    lr_mult: 0
    decay_mult: 0
  }
}
layer {
  name: "conv2_1_em/scale"
  type: "Scale"
  bottom: "conv2_1_em"
  top: "conv2_1_em"
  param {
    lr_mult: 1
    decay_mult: 0
  }
  param {
    lr_mult: 1
    decay_mult: 0
  }
  scale_param {
    bias_term: true
  }
}
layer {
  name: "res2_1"
  type: "Eltwise"
  bottom: "conv2_em"
  bottom: "conv2_1_em"
  top: "res2_1"
}
layer {
  name: "conv2_2_ex"
  type: "Convolution"
  bottom: "res2_1"
  top: "conv2_2_ex"
  param {
    lr_mult: 1
    decay_mult: 1
  }
  convolution_param {
    num_output: 128
    bias_term: false
    pad: 0
    kernel_size: 1
    stride: 1
    weight_filler {
      type: "xavier"
    }
  }
}
layer {
  name: "conv2_2_ex/bn"
  type: "BatchNorm"
  bottom: "conv2_2_ex"
  top: "conv2_2_ex"
  param {
    lr_mult: 0
    decay_mult: 0
  }
  param {
    lr_mult: 0
    decay_mult: 0
  }
  param {
    lr_mult: 0
    decay_mult: 0
  }
}
layer {
  name: "conv2_2_ex/scale"
  type: "Scale"
  bottom: "conv2_2_ex"
  top: "conv2_2_ex"
  param {
    lr_mult: 1
    decay_mult: 0
  }
  param {
    lr_mult: 1
    decay_mult: 0
  }
  scale_param {
    bias_term: true
  }
}
layer {
  name: "relu2_2_ex"
  type: "PReLU"
  bottom: "conv2_2_ex"
  top: "conv2_2_ex"
}
layer {
  name: "conv2_2_dw"
  type: "DepthwiseConvolution"
  bottom: "conv2_2_ex"
  top: "conv2_2_dw"
  param {
    lr_mult: 1
    decay_mult: 1
  }
  convolution_param {
    num_output: 128
    bias_term: false
    pad: 1
    kernel_size: 3
    group: 128
    stride: 1
    weight_filler {
      type: "xavier"
    }
    engine: CAFFE
  }
}
layer {
  name: "conv2_2_dw/bn"
  type: "BatchNorm"
  bottom: "conv2_2_dw"
  top: "conv2_2_dw"
  param {
    lr_mult: 0
    decay_mult: 0
  }
  param {
    lr_mult: 0
    decay_mult: 0
  }
  param {
    lr_mult: 0
    decay_mult: 0
  }
}
layer {
  name: "conv2_2_dw/scale"
  type: "Scale"
  bottom: "conv2_2_dw"
  top: "conv2_2_dw"
  param {
    lr_mult: 1
    decay_mult: 0
  }
  param {
    lr_mult: 1
    decay_mult: 0
  }
  scale_param {
    bias_term: true
  }
}
layer {
  name: "relu2_2_dw"
  type: "PReLU"
  bottom: "conv2_2_dw"
  top: "conv2_2_dw"
}
layer {
  name: "conv2_2_em"
  type: "Convolution"
  bottom: "conv2_2_dw"
  top: "conv2_2_em"
  param {
    lr_mult: 1
    decay_mult: 1
  }
  convolution_param {
    num_output: 64
    bias_term: false
    pad: 0
    kernel_size: 1
    stride: 1
    weight_filler {
      type: "xavier"
    }
  }
}
layer {
  name: "conv2_2_em/bn"
  type: "BatchNorm"
  bottom: "conv2_2_em"
  top: "conv2_2_em"
  param {
    lr_mult: 0
    decay_mult: 0
  }
  param {
    lr_mult: 0
    decay_mult: 0
  }
  param {
    lr_mult: 0
    decay_mult: 0
  }
}
layer {
  name: "conv2_2_em/scale"
  type: "Scale"
  bottom: "conv2_2_em"
  top: "conv2_2_em"
  param {
    lr_mult: 1
    decay_mult: 0
  }
  param {
    lr_mult: 1
    decay_mult: 0
  }
  scale_param {
    bias_term: true
  }
}
layer {
  name: "res2_2"
  type: "Eltwise"
  bottom: "res2_1"
  bottom: "conv2_2_em"
  top: "res2_2"
}
layer {
  name: "conv2_3_ex"
  type: "Convolution"
  bottom: "res2_2"
  top: "conv2_3_ex"
  param {
    lr_mult: 1
    decay_mult: 1
  }
  convolution_param {
    num_output: 128
    bias_term: false
    pad: 0
    kernel_size: 1
    stride: 1
    weight_filler {
      type: "xavier"
    }
  }
}
layer {
  name: "conv2_3_ex/bn"
  type: "BatchNorm"
  bottom: "conv2_3_ex"
  top: "conv2_3_ex"
  param {
    lr_mult: 0
    decay_mult: 0
  }
  param {
    lr_mult: 0
    decay_mult: 0
  }
  param {
    lr_mult: 0
    decay_mult: 0
  }
}
layer {
  name: "conv2_3_ex/scale"
  type: "Scale"
  bottom: "conv2_3_ex"
  top: "conv2_3_ex"
  param {
    lr_mult: 1
    decay_mult: 0
  }
  param {
    lr_mult: 1
    decay_mult: 0
  }
  scale_param {
    bias_term: true
  }
}
layer {
  name: "relu2_3_ex"
  type: "PReLU"
  bottom: "conv2_3_ex"
  top: "conv2_3_ex"
}
layer {
  name: "conv2_3_dw"
  type: "DepthwiseConvolution"
  bottom: "conv2_3_ex"
  top: "conv2_3_dw"
  param {
    lr_mult: 1
    decay_mult: 1
  }
  convolution_param {
    num_output: 128
    bias_term: false
    pad: 1
    kernel_size: 3
    group: 128
    stride: 1
    weight_filler {
      type: "xavier"
    }
    engine: CAFFE
  }
}
layer {
  name: "conv2_3_dw/bn"
  type: "BatchNorm"
  bottom: "conv2_3_dw"
  top: "conv2_3_dw"
  param {
    lr_mult: 0
    decay_mult: 0
  }
  param {
    lr_mult: 0
    decay_mult: 0
  }
  param {
    lr_mult: 0
    decay_mult: 0
  }
}
layer {
  name: "conv2_3_dw/scale"
  type: "Scale"
  bottom: "conv2_3_dw"
  top: "conv2_3_dw"
  param {
    lr_mult: 1
    decay_mult: 0
  }
  param {
    lr_mult: 1
    decay_mult: 0
  }
  scale_param {
    bias_term: true
  }
}
layer {
  name: "relu2_3_dw"
  type: "PReLU"
  bottom: "conv2_3_dw"
  top: "conv2_3_dw"
}
layer {
  name: "conv2_3_em"
  type: "Convolution"
  bottom: "conv2_3_dw"
  top: "conv2_3_em"
  param {
    lr_mult: 1
    decay_mult: 1
  }
  convolution_param {
    num_output: 64
    bias_term: false
    pad: 0
    kernel_size: 1
    stride: 1
    weight_filler {
      type: "xavier"
    }
  }
}
layer {
  name: "conv2_3_em/bn"
  type: "BatchNorm"
  bottom: "conv2_3_em"
  top: "conv2_3_em"
  param {
    lr_mult: 0
    decay_mult: 0
  }
  param {
    lr_mult: 0
    decay_mult: 0
  }
  param {
    lr_mult: 0
    decay_mult: 0
  }
}
layer {
  name: "conv2_3_em/scale"
  type: "Scale"
  bottom: "conv2_3_em"
  top: "conv2_3_em"
  param {
    lr_mult: 1
    decay_mult: 0
  }
  param {
    lr_mult: 1
    decay_mult: 0
  }
  scale_param {
    bias_term: true
  }
}
layer {
  name: "res2_3"
  type: "Eltwise"
  bottom: "res2_2"
  bottom: "conv2_3_em"
  top: "res2_3"
}
layer {
  name: "conv2_4_ex"
  type: "Convolution"
  bottom: "res2_3"
  top: "conv2_4_ex"
  param {
    lr_mult: 1
    decay_mult: 1
  }
  convolution_param {
    num_output: 128
    bias_term: false
    pad: 0
    kernel_size: 1
    stride: 1
    weight_filler {
      type: "xavier"
    }
  }
}
layer {
  name: "conv2_4_ex/bn"
  type: "BatchNorm"
  bottom: "conv2_4_ex"
  top: "conv2_4_ex"
  param {
    lr_mult: 0
    decay_mult: 0
  }
  param {
    lr_mult: 0
    decay_mult: 0
  }
  param {
    lr_mult: 0
    decay_mult: 0
  }
}
layer {
  name: "conv2_4_ex/scale"
  type: "Scale"
  bottom: "conv2_4_ex"
  top: "conv2_4_ex"
  param {
    lr_mult: 1
    decay_mult: 0
  }
  param {
    lr_mult: 1
    decay_mult: 0
  }
  scale_param {
    bias_term: true
  }
}
layer {
  name: "relu2_4_ex"
  type: "PReLU"
  bottom: "conv2_4_ex"
  top: "conv2_4_ex"
}
layer {
  name: "conv2_4_dw"
  type: "DepthwiseConvolution"
  bottom: "conv2_4_ex"
  top: "conv2_4_dw"
  param {
    lr_mult: 1
    decay_mult: 1
  }
  convolution_param {
    num_output: 128
    bias_term: false
    pad: 1
    kernel_size: 3
    group: 128
    stride: 1
    weight_filler {
      type: "xavier"
    }
    engine: CAFFE
  }
}
layer {
  name: "conv2_4_dw/bn"
  type: "BatchNorm"
  bottom: "conv2_4_dw"
  top: "conv2_4_dw"
  param {
    lr_mult: 0
    decay_mult: 0
  }
  param {
    lr_mult: 0
    decay_mult: 0
  }
  param {
    lr_mult: 0
    decay_mult: 0
  }
}
layer {
  name: "conv2_4_dw/scale"
  type: "Scale"
  bottom: "conv2_4_dw"
  top: "conv2_4_dw"
  param {
    lr_mult: 1
    decay_mult: 0
  }
  param {
    lr_mult: 1
    decay_mult: 0
  }
  scale_param {
    bias_term: true
  }
}
layer {
  name: "relu2_4_dw"
  type: "PReLU"
  bottom: "conv2_4_dw"
  top: "conv2_4_dw"
}
layer {
  name: "conv2_4_em"
  type: "Convolution"
  bottom: "conv2_4_dw"
  top: "conv2_4_em"
  param {
    lr_mult: 1
    decay_mult: 1
  }
  convolution_param {
    num_output: 64
    bias_term: false
    pad: 0
    kernel_size: 1
    stride: 1
    weight_filler {
      type: "xavier"
    }
  }
}
layer {
  name: "conv2_4_em/bn"
  type: "BatchNorm"
  bottom: "conv2_4_em"
  top: "conv2_4_em"
  param {
    lr_mult: 0
    decay_mult: 0
  }
  param {
    lr_mult: 0
    decay_mult: 0
  }
  param {
    lr_mult: 0
    decay_mult: 0
  }
}
layer {
  name: "conv2_4_em/scale"
  type: "Scale"
  bottom: "conv2_4_em"
  top: "conv2_4_em"
  param {
    lr_mult: 1
    decay_mult: 0
  }
  param {
    lr_mult: 1
    decay_mult: 0
  }
  scale_param {
    bias_term: true
  }
}
layer {
  name: "res2_4"
  type: "Eltwise"
  bottom: "res2_3"
  bottom: "conv2_4_em"
  top: "res2_4"
}
layer {
  name: "conv3_ex"
  type: "Convolution"
  bottom: "res2_4"
  top: "conv3_ex"
  param {
    lr_mult: 1
    decay_mult: 1
  }
  convolution_param {
    num_output: 256
    bias_term: false
    pad: 0
    kernel_size: 1
    stride: 1
    weight_filler {
      type: "xavier"
    }
  }
}
layer {
  name: "conv3_ex/bn"
  type: "BatchNorm"
  bottom: "conv3_ex"
  top: "conv3_ex"
  param {
    lr_mult: 0
    decay_mult: 0
  }
  param {
    lr_mult: 0
    decay_mult: 0
  }
  param {
    lr_mult: 0
    decay_mult: 0
  }
}
layer {
  name: "conv3_ex/scale"
  type: "Scale"
  bottom: "conv3_ex"
  top: "conv3_ex"
  param {
    lr_mult: 1
    decay_mult: 0
  }
  param {
    lr_mult: 1
    decay_mult: 0
  }
  scale_param {
    bias_term: true
  }
}
layer {
  name: "relu3_ex"
  type: "PReLU"
  bottom: "conv3_ex"
  top: "conv3_ex"
}
layer {
  name: "conv3_dw"
  type: "DepthwiseConvolution"
  bottom: "conv3_ex"
  top: "conv3_dw"
  param {
    lr_mult: 1
    decay_mult: 1
  }
  convolution_param {
    num_output: 256
    bias_term: false
    pad: 1
    kernel_size: 3
    group: 256
    stride: 2
    weight_filler {
      type: "xavier"
    }
    engine: CAFFE
  }
}
layer {
  name: "conv3_dw/bn"
  type: "BatchNorm"
  bottom: "conv3_dw"
  top: "conv3_dw"
  param {
    lr_mult: 0
    decay_mult: 0
  }
  param {
    lr_mult: 0
    decay_mult: 0
  }
  param {
    lr_mult: 0
    decay_mult: 0
  }
}
layer {
  name: "conv3_dw/scale"
  type: "Scale"
  bottom: "conv3_dw"
  top: "conv3_dw"
  param {
    lr_mult: 1
    decay_mult: 0
  }
  param {
    lr_mult: 1
    decay_mult: 0
  }
  scale_param {
    bias_term: true
  }
}
layer {
  name: "relu3_dw"
  type: "PReLU"
  bottom: "conv3_dw"
  top: "conv3_dw"
}
layer {
  name: "conv3_em"
  type: "Convolution"
  bottom: "conv3_dw"
  top: "conv3_em"
  param {
    lr_mult: 1
    decay_mult: 1
  }
  convolution_param {
    num_output: 128
    bias_term: false
    pad: 0
    kernel_size: 1
    stride: 1
    weight_filler {
      type: "xavier"
    }
  }
}
layer {
  name: "conv3_em/bn"
  type: "BatchNorm"
  bottom: "conv3_em"
  top: "conv3_em"
  param {
    lr_mult: 0
    decay_mult: 0
  }
  param {
    lr_mult: 0
    decay_mult: 0
  }
  param {
    lr_mult: 0
    decay_mult: 0
  }
}
layer {
  name: "conv3_em/scale"
  type: "Scale"
  bottom: "conv3_em"
  top: "conv3_em"
  param {
    lr_mult: 1
    decay_mult: 0
  }
  param {
    lr_mult: 1
    decay_mult: 0
  }
  scale_param {
    bias_term: true
  }
}
layer {
  name: "conv3_1_ex"
  type: "Convolution"
  bottom: "conv3_em"
  top: "conv3_1_ex"
  param {
    lr_mult: 1
    decay_mult: 1
  }
  convolution_param {
    num_output: 256
    bias_term: false
    pad: 0
    kernel_size: 1
    stride: 1
    weight_filler {
      type: "xavier"
    }
  }
}
layer {
  name: "conv3_1_ex/bn"
  type: "BatchNorm"
  bottom: "conv3_1_ex"
  top: "conv3_1_ex"
  param {
    lr_mult: 0
    decay_mult: 0
  }
  param {
    lr_mult: 0
    decay_mult: 0
  }
  param {
    lr_mult: 0
    decay_mult: 0
  }
}
layer {
  name: "conv3_1_ex/scale"
  type: "Scale"
  bottom: "conv3_1_ex"
  top: "conv3_1_ex"
  param {
    lr_mult: 1
    decay_mult: 0
  }
  param {
    lr_mult: 1
    decay_mult: 0
  }
  scale_param {
    bias_term: true
  }
}
layer {
  name: "relu3_1_ex"
  type: "PReLU"
  bottom: "conv3_1_ex"
  top: "conv3_1_ex"
}
layer {
  name: "conv3_1_dw"
  type: "DepthwiseConvolution"
  bottom: "conv3_1_ex"
  top: "conv3_1_dw"
  param {
    lr_mult: 1
    decay_mult: 1
  }
  convolution_param {
    num_output: 256
    bias_term: false
    pad: 1
    kernel_size: 3
    group: 256
    stride: 1
    weight_filler {
      type: "xavier"
    }
    engine: CAFFE
  }
}
layer {
  name: "conv3_1_dw/bn"
  type: "BatchNorm"
  bottom: "conv3_1_dw"
  top: "conv3_1_dw"
  param {
    lr_mult: 0
    decay_mult: 0
  }
  param {
    lr_mult: 0
    decay_mult: 0
  }
  param {
    lr_mult: 0
    decay_mult: 0
  }
}
layer {
  name: "conv3_1_dw/scale"
  type: "Scale"
  bottom: "conv3_1_dw"
  top: "conv3_1_dw"
  param {
    lr_mult: 1
    decay_mult: 0
  }
  param {
    lr_mult: 1
    decay_mult: 0
  }
  scale_param {
    bias_term: true
  }
}
layer {
  name: "relu3_1_dw"
  type: "PReLU"
  bottom: "conv3_1_dw"
  top: "conv3_1_dw"
}
layer {
  name: "conv3_1_em"
  type: "Convolution"
  bottom: "conv3_1_dw"
  top: "conv3_1_em"
  param {
    lr_mult: 1
    decay_mult: 1
  }
  convolution_param {
    num_output: 128
    bias_term: false
    pad: 0
    kernel_size: 1
    stride: 1
    weight_filler {
      type: "xavier"
    }
  }
}
layer {
  name: "conv3_1_em/bn"
  type: "BatchNorm"
  bottom: "conv3_1_em"
  top: "conv3_1_em"
  param {
    lr_mult: 0
    decay_mult: 0
  }
  param {
    lr_mult: 0
    decay_mult: 0
  }
  param {
    lr_mult: 0
    decay_mult: 0
  }
}
layer {
  name: "conv3_1_em/scale"
  type: "Scale"
  bottom: "conv3_1_em"
  top: "conv3_1_em"
  param {
    lr_mult: 1
    decay_mult: 0
  }
  param {
    lr_mult: 1
    decay_mult: 0
  }
  scale_param {
    bias_term: true
  }
}
layer {
  name: "res3_1"
  type: "Eltwise"
  bottom: "conv3_em"
  bottom: "conv3_1_em"
  top: "res3_1"
}
layer {
  name: "conv3_2_ex"
  type: "Convolution"
  bottom: "res3_1"
  top: "conv3_2_ex"
  param {
    lr_mult: 1
    decay_mult: 1
  }
  convolution_param {
    num_output: 256
    bias_term: false
    pad: 0
    kernel_size: 1
    stride: 1
    weight_filler {
      type: "xavier"
    }
  }
}
layer {
  name: "conv3_2_ex/bn"
  type: "BatchNorm"
  bottom: "conv3_2_ex"
  top: "conv3_2_ex"
  param {
    lr_mult: 0
    decay_mult: 0
  }
  param {
    lr_mult: 0
    decay_mult: 0
  }
  param {
    lr_mult: 0
    decay_mult: 0
  }
}
layer {
  name: "conv3_2_ex/scale"
  type: "Scale"
  bottom: "conv3_2_ex"
  top: "conv3_2_ex"
  param {
    lr_mult: 1
    decay_mult: 0
  }
  param {
    lr_mult: 1
    decay_mult: 0
  }
  scale_param {
    bias_term: true
  }
}
layer {
  name: "relu3_2_ex"
  type: "PReLU"
  bottom: "conv3_2_ex"
  top: "conv3_2_ex"
}
layer {
  name: "conv3_2_dw"
  type: "DepthwiseConvolution"
  bottom: "conv3_2_ex"
  top: "conv3_2_dw"
  param {
    lr_mult: 1
    decay_mult: 1
  }
  convolution_param {
    num_output: 256
    bias_term: false
    pad: 1
    kernel_size: 3
    group: 256
    stride: 1
    weight_filler {
      type: "xavier"
    }
    engine: CAFFE
  }
}
layer {
  name: "conv3_2_dw/bn"
  type: "BatchNorm"
  bottom: "conv3_2_dw"
  top: "conv3_2_dw"
  param {
    lr_mult: 0
    decay_mult: 0
  }
  param {
    lr_mult: 0
    decay_mult: 0
  }
  param {
    lr_mult: 0
    decay_mult: 0
  }
}
layer {
  name: "conv3_2_dw/scale"
  type: "Scale"
  bottom: "conv3_2_dw"
  top: "conv3_2_dw"
  param {
    lr_mult: 1
    decay_mult: 0
  }
  param {
    lr_mult: 1
    decay_mult: 0
  }
  scale_param {
    bias_term: true
  }
}
layer {
  name: "relu3_2_dw"
  type: "PReLU"
  bottom: "conv3_2_dw"
  top: "conv3_2_dw"
}
layer {
  name: "conv3_2_em"
  type: "Convolution"
  bottom: "conv3_2_dw"
  top: "conv3_2_em"
  param {
    lr_mult: 1
    decay_mult: 1
  }
  convolution_param {
    num_output: 128
    bias_term: false
    pad: 0
    kernel_size: 1
    stride: 1
    weight_filler {
      type: "xavier"
    }
  }
}
layer {
  name: "conv3_2_em/bn"
  type: "BatchNorm"
  bottom: "conv3_2_em"
  top: "conv3_2_em"
  param {
    lr_mult: 0
    decay_mult: 0
  }
  param {
    lr_mult: 0
    decay_mult: 0
  }
  param {
    lr_mult: 0
    decay_mult: 0
  }
}
layer {
  name: "conv3_2_em/scale"
  type: "Scale"
  bottom: "conv3_2_em"
  top: "conv3_2_em"
  param {
    lr_mult: 1
    decay_mult: 0
  }
  param {
    lr_mult: 1
    decay_mult: 0
  }
  scale_param {
    bias_term: true
  }
}
layer {
  name: "res3_2"
  type: "Eltwise"
  bottom: "res3_1"
  bottom: "conv3_2_em"
  top: "res3_2"
}
layer {
  name: "conv3_3_ex"
  type: "Convolution"
  bottom: "res3_2"
  top: "conv3_3_ex"
  param {
    lr_mult: 1
    decay_mult: 1
  }
  convolution_param {
    num_output: 256
    bias_term: false
    pad: 0
    kernel_size: 1
    stride: 1
    weight_filler {
      type: "xavier"
    }
  }
}
layer {
  name: "conv3_3_ex/bn"
  type: "BatchNorm"
  bottom: "conv3_3_ex"
  top: "conv3_3_ex"
  param {
    lr_mult: 0
    decay_mult: 0
  }
  param {
    lr_mult: 0
    decay_mult: 0
  }
  param {
    lr_mult: 0
    decay_mult: 0
  }
}
layer {
  name: "conv3_3_ex/scale"
  type: "Scale"
  bottom: "conv3_3_ex"
  top: "conv3_3_ex"
  param {
    lr_mult: 1
    decay_mult: 0
  }
  param {
    lr_mult: 1
    decay_mult: 0
  }
  scale_param {
    bias_term: true
  }
}
layer {
  name: "relu3_3_ex"
  type: "PReLU"
  bottom: "conv3_3_ex"
  top: "conv3_3_ex"
}
layer {
  name: "conv3_3_dw"
  type: "DepthwiseConvolution"
  bottom: "conv3_3_ex"
  top: "conv3_3_dw"
  param {
    lr_mult: 1
    decay_mult: 1
  }
  convolution_param {
    num_output: 256
    bias_term: false
    pad: 1
    kernel_size: 3
    group: 256
    stride: 1
    weight_filler {
      type: "xavier"
    }
    engine: CAFFE
  }
}
layer {
  name: "conv3_3_dw/bn"
  type: "BatchNorm"
  bottom: "conv3_3_dw"
  top: "conv3_3_dw"
  param {
    lr_mult: 0
    decay_mult: 0
  }
  param {
    lr_mult: 0
    decay_mult: 0
  }
  param {
    lr_mult: 0
    decay_mult: 0
  }
}
layer {
  name: "conv3_3_dw/scale"
  type: "Scale"
  bottom: "conv3_3_dw"
  top: "conv3_3_dw"
  param {
    lr_mult: 1
    decay_mult: 0
  }
  param {
    lr_mult: 1
    decay_mult: 0
  }
  scale_param {
    bias_term: true
  }
}
layer {
  name: "relu3_3_dw"
  type: "PReLU"
  bottom: "conv3_3_dw"
  top: "conv3_3_dw"
}
layer {
  name: "conv3_3_em"
  type: "Convolution"
  bottom: "conv3_3_dw"
  top: "conv3_3_em"
  param {
    lr_mult: 1
    decay_mult: 1
  }
  convolution_param {
    num_output: 128
    bias_term: false
    pad: 0
    kernel_size: 1
    stride: 1
    weight_filler {
      type: "xavier"
    }
  }
}
layer {
  name: "conv3_3_em/bn"
  type: "BatchNorm"
  bottom: "conv3_3_em"
  top: "conv3_3_em"
  param {
    lr_mult: 0
    decay_mult: 0
  }
  param {
    lr_mult: 0
    decay_mult: 0
  }
  param {
    lr_mult: 0
    decay_mult: 0
  }
}
layer {
  name: "conv3_3_em/scale"
  type: "Scale"
  bottom: "conv3_3_em"
  top: "conv3_3_em"
  param {
    lr_mult: 1
    decay_mult: 0
  }
  param {
    lr_mult: 1
    decay_mult: 0
  }
  scale_param {
    bias_term: true
  }
}
layer {
  name: "res3_3"
  type: "Eltwise"
  bottom: "res3_2"
  bottom: "conv3_3_em"
  top: "res3_3"
}
layer {
  name: "conv3_4_ex"
  type: "Convolution"
  bottom: "res3_3"
  top: "conv3_4_ex"
  param {
    lr_mult: 1
    decay_mult: 1
  }
  convolution_param {
    num_output: 256
    bias_term: false
    pad: 0
    kernel_size: 1
    stride: 1
    weight_filler {
      type: "xavier"
    }
  }
}
layer {
  name: "conv3_4_ex/bn"
  type: "BatchNorm"
  bottom: "conv3_4_ex"
  top: "conv3_4_ex"
  param {
    lr_mult: 0
    decay_mult: 0
  }
  param {
    lr_mult: 0
    decay_mult: 0
  }
  param {
    lr_mult: 0
    decay_mult: 0
  }
}
layer {
  name: "conv3_4_ex/scale"
  type: "Scale"
  bottom: "conv3_4_ex"
  top: "conv3_4_ex"
  param {
    lr_mult: 1
    decay_mult: 0
  }
  param {
    lr_mult: 1
    decay_mult: 0
  }
  scale_param {
    bias_term: true
  }
}
layer {
  name: "relu3_4_ex"
  type: "PReLU"
  bottom: "conv3_4_ex"
  top: "conv3_4_ex"
}
layer {
  name: "conv3_4_dw"
  type: "DepthwiseConvolution"
  bottom: "conv3_4_ex"
  top: "conv3_4_dw"
  param {
    lr_mult: 1
    decay_mult: 1
  }
  convolution_param {
    num_output: 256
    bias_term: false
    pad: 1
    kernel_size: 3
    group: 256
    stride: 1
    weight_filler {
      type: "xavier"
    }
    engine: CAFFE
  }
}
layer {
  name: "conv3_4_dw/bn"
  type: "BatchNorm"
  bottom: "conv3_4_dw"
  top: "conv3_4_dw"
  param {
    lr_mult: 0
    decay_mult: 0
  }
  param {
    lr_mult: 0
    decay_mult: 0
  }
  param {
    lr_mult: 0
    decay_mult: 0
  }
}
layer {
  name: "conv3_4_dw/scale"
  type: "Scale"
  bottom: "conv3_4_dw"
  top: "conv3_4_dw"
  param {
    lr_mult: 1
    decay_mult: 0
  }
  param {
    lr_mult: 1
    decay_mult: 0
  }
  scale_param {
    bias_term: true
  }
}
layer {
  name: "relu3_4_dw"
  type: "PReLU"
  bottom: "conv3_4_dw"
  top: "conv3_4_dw"
}
layer {
  name: "conv3_4_em"
  type: "Convolution"
  bottom: "conv3_4_dw"
  top: "conv3_4_em"
  param {
    lr_mult: 1
    decay_mult: 1
  }
  convolution_param {
    num_output: 128
    bias_term: false
    pad: 0
    kernel_size: 1
    stride: 1
    weight_filler {
      type: "xavier"
    }
  }
}
layer {
  name: "conv3_4_em/bn"
  type: "BatchNorm"
  bottom: "conv3_4_em"
  top: "conv3_4_em"
  param {
    lr_mult: 0
    decay_mult: 0
  }
  param {
    lr_mult: 0
    decay_mult: 0
  }
  param {
    lr_mult: 0
    decay_mult: 0
  }
}
layer {
  name: "conv3_4_em/scale"
  type: "Scale"
  bottom: "conv3_4_em"
  top: "conv3_4_em"
  param {
    lr_mult: 1
    decay_mult: 0
  }
  param {
    lr_mult: 1
    decay_mult: 0
  }
  scale_param {
    bias_term: true
  }
}
layer {
  name: "res3_4"
  type: "Eltwise"
  bottom: "res3_3"
  bottom: "conv3_4_em"
  top: "res3_4"
}
layer {
  name: "conv3_5_ex"
  type: "Convolution"
  bottom: "res3_4"
  top: "conv3_5_ex"
  param {
    lr_mult: 1
    decay_mult: 1
  }
  convolution_param {
    num_output: 256
    bias_term: false
    pad: 0
    kernel_size: 1
    stride: 1
    weight_filler {
      type: "xavier"
    }
  }
}
layer {
  name: "conv3_5_ex/bn"
  type: "BatchNorm"
  bottom: "conv3_5_ex"
  top: "conv3_5_ex"
  param {
    lr_mult: 0
    decay_mult: 0
  }
  param {
    lr_mult: 0
    decay_mult: 0
  }
  param {
    lr_mult: 0
    decay_mult: 0
  }
}
layer {
  name: "conv3_5_ex/scale"
  type: "Scale"
  bottom: "conv3_5_ex"
  top: "conv3_5_ex"
  param {
    lr_mult: 1
    decay_mult: 0
  }
  param {
    lr_mult: 1
    decay_mult: 0
  }
  scale_param {
    bias_term: true
  }
}
layer {
  name: "relu3_5_ex"
  type: "PReLU"
  bottom: "conv3_5_ex"
  top: "conv3_5_ex"
}
layer {
  name: "conv3_5_dw"
  type: "DepthwiseConvolution"
  bottom: "conv3_5_ex"
  top: "conv3_5_dw"
  param {
    lr_mult: 1
    decay_mult: 1
  }
  convolution_param {
    num_output: 256
    bias_term: false
    pad: 1
    kernel_size: 3
    group: 256
    stride: 1
    weight_filler {
      type: "xavier"
    }
    engine: CAFFE
  }
}
layer {
  name: "conv3_5_dw/bn"
  type: "BatchNorm"
  bottom: "conv3_5_dw"
  top: "conv3_5_dw"
  param {
    lr_mult: 0
    decay_mult: 0
  }
  param {
    lr_mult: 0
    decay_mult: 0
  }
  param {
    lr_mult: 0
    decay_mult: 0
  }
}
layer {
  name: "conv3_5_dw/scale"
  type: "Scale"
  bottom: "conv3_5_dw"
  top: "conv3_5_dw"
  param {
    lr_mult: 1
    decay_mult: 0
  }
  param {
    lr_mult: 1
    decay_mult: 0
  }
  scale_param {
    bias_term: true
  }
}
layer {
  name: "relu3_5_dw"
  type: "PReLU"
  bottom: "conv3_5_dw"
  top: "conv3_5_dw"
}
layer {
  name: "conv3_5_em"
  type: "Convolution"
  bottom: "conv3_5_dw"
  top: "conv3_5_em"
  param {
    lr_mult: 1
    decay_mult: 1
  }
  convolution_param {
I0510 16:30:43.452024 39557 layer_factory.hpp:77] Creating layer data
I0510 16:30:43.452060 39557 net.cpp:84] Creating Layer data
I0510 16:30:43.452069 39557 net.cpp:380] data -> data
I0510 16:30:43.452102 39557 net.cpp:380] data -> label
I0510 16:30:43.452167 39557 image_data_layer.cpp:38] Opening file /data/vggface2/VGGFACE_train_list-112X96-add.txt
I0510 16:30:44.392499 39557 image_data_layer.cpp:53] Shuffling data
I0510 16:30:44.540964 39557 image_data_layer.cpp:63] A total of 3306982 images.
I0510 16:30:44.543790 39557 image_data_layer.cpp:90] output data size: 64,3,112,96
I0510 16:30:44.564759 39557 net.cpp:122] Setting up data
I0510 16:30:44.564785 39557 net.cpp:129] Top shape: 64 3 112 96 (2064384)
I0510 16:30:44.564790 39557 net.cpp:129] Top shape: 64 (64)
I0510 16:30:44.564793 39557 net.cpp:137] Memory required for data: 8257792
I0510 16:30:44.564822 39557 layer_factory.hpp:77] Creating layer label_data_1_split
I0510 16:30:44.564913 39557 net.cpp:84] Creating Layer label_data_1_split
I0510 16:30:44.564920 39557 net.cpp:406] label_data_1_split <- label
I0510 16:30:44.564946 39557 net.cpp:380] label_data_1_split -> label_data_1_split_0
I0510 16:30:44.564960 39557 net.cpp:380] label_data_1_split -> label_data_1_split_1
I0510 16:30:44.565265 39557 net.cpp:122] Setting up label_data_1_split
I0510 16:30:44.565274 39557 net.cpp:129] Top shape: 64 (64)
I0510 16:30:44.565289 39557 net.cpp:129] Top shape: 64 (64)
I0510 16:30:44.565291 39557 net.cpp:137] Memory required for data: 8258304
I0510 16:30:44.565296 39557 layer_factory.hpp:77] Creating layer conv1
I0510 16:30:44.565323 39557 net.cpp:84] Creating Layer conv1
I0510 16:30:44.565328 39557 net.cpp:406] conv1 <- data
I0510 16:30:44.565335 39557 net.cpp:380] conv1 -> conv1
I0510 16:30:45.123051 39557 net.cpp:122] Setting up conv1
I0510 16:30:45.123095 39557 net.cpp:129] Top shape: 64 64 56 48 (11010048)
I0510 16:30:45.123142 39557 net.cpp:137] Memory required for data: 52298496
I0510 16:30:45.123170 39557 layer_factory.hpp:77] Creating layer conv1/bn
I0510 16:30:45.123185 39557 net.cpp:84] Creating Layer conv1/bn
I0510 16:30:45.123190 39557 net.cpp:406] conv1/bn <- conv1
I0510 16:30:45.123198 39557 net.cpp:367] conv1/bn -> conv1 (in-place)
I0510 16:30:45.123412 39557 net.cpp:122] Setting up conv1/bn
I0510 16:30:45.123422 39557 net.cpp:129] Top shape: 64 64 56 48 (11010048)
I0510 16:30:45.123426 39557 net.cpp:137] Memory required for data: 96338688
I0510 16:30:45.123437 39557 layer_factory.hpp:77] Creating layer conv1/scale
I0510 16:30:45.123448 39557 net.cpp:84] Creating Layer conv1/scale
I0510 16:30:45.123456 39557 net.cpp:406] conv1/scale <- conv1
I0510 16:30:45.123461 39557 net.cpp:367] conv1/scale -> conv1 (in-place)
I0510 16:30:45.123517 39557 layer_factory.hpp:77] Creating layer conv1/scale
I0510 16:30:45.123633 39557 net.cpp:122] Setting up conv1/scale
I0510 16:30:45.123642 39557 net.cpp:129] Top shape: 64 64 56 48 (11010048)
I0510 16:30:45.123646 39557 net.cpp:137] Memory required for data: 140378880
I0510 16:30:45.123652 39557 layer_factory.hpp:77] Creating layer relu1
I0510 16:30:45.123664 39557 net.cpp:84] Creating Layer relu1
I0510 16:30:45.123669 39557 net.cpp:406] relu1 <- conv1
I0510 16:30:45.123674 39557 net.cpp:367] relu1 -> conv1 (in-place)
I0510 16:30:45.124999 39557 net.cpp:122] Setting up relu1
I0510 16:30:45.125012 39557 net.cpp:129] Top shape: 64 64 56 48 (11010048)
I0510 16:30:45.125016 39557 net.cpp:137] Memory required for data: 184419072
I0510 16:30:45.125032 39557 layer_factory.hpp:77] Creating layer conv1_dw
I0510 16:30:45.125043 39557 net.cpp:84] Creating Layer conv1_dw
I0510 16:30:45.125048 39557 net.cpp:406] conv1_dw <- conv1
I0510 16:30:45.125054 39557 net.cpp:380] conv1_dw -> conv1_dw
I0510 16:30:45.126323 39557 net.cpp:122] Setting up conv1_dw
I0510 16:30:45.126338 39557 net.cpp:129] Top shape: 64 64 56 48 (11010048)
I0510 16:30:45.126341 39557 net.cpp:137] Memory required for data: 228459264
I0510 16:30:45.126358 39557 layer_factory.hpp:77] Creating layer conv1_dw/bn
I0510 16:30:45.126368 39557 net.cpp:84] Creating Layer conv1_dw/bn
I0510 16:30:45.126372 39557 net.cpp:406] conv1_dw/bn <- conv1_dw
I0510 16:30:45.126377 39557 net.cpp:367] conv1_dw/bn -> conv1_dw (in-place)
I0510 16:30:45.126581 39557 net.cpp:122] Setting up conv1_dw/bn
I0510 16:30:45.126590 39557 net.cpp:129] Top shape: 64 64 56 48 (11010048)
I0510 16:30:45.126592 39557 net.cpp:137] Memory required for data: 272499456
I0510 16:30:45.126605 39557 layer_factory.hpp:77] Creating layer conv1_dw/scale
I0510 16:30:45.126613 39557 net.cpp:84] Creating Layer conv1_dw/scale
I0510 16:30:45.126617 39557 net.cpp:406] conv1_dw/scale <- conv1_dw
I0510 16:30:45.126622 39557 net.cpp:367] conv1_dw/scale -> conv1_dw (in-place)
I0510 16:30:45.126662 39557 layer_factory.hpp:77] Creating layer conv1_dw/scale
I0510 16:30:45.126766 39557 net.cpp:122] Setting up conv1_dw/scale
I0510 16:30:45.126775 39557 net.cpp:129] Top shape: 64 64 56 48 (11010048)
I0510 16:30:45.126778 39557 net.cpp:137] Memory required for data: 316539648
I0510 16:30:45.126783 39557 layer_factory.hpp:77] Creating layer relu1_dw
I0510 16:30:45.126790 39557 net.cpp:84] Creating Layer relu1_dw
I0510 16:30:45.126792 39557 net.cpp:406] relu1_dw <- conv1_dw
I0510 16:30:45.126796 39557 net.cpp:367] relu1_dw -> conv1_dw (in-place)
I0510 16:30:45.126977 39557 net.cpp:122] Setting up relu1_dw
I0510 16:30:45.126986 39557 net.cpp:129] Top shape: 64 64 56 48 (11010048)
I0510 16:30:45.126988 39557 net.cpp:137] Memory required for data: 360579840
I0510 16:30:45.127005 39557 layer_factory.hpp:77] Creating layer conv2_ex
I0510 16:30:45.127025 39557 net.cpp:84] Creating Layer conv2_ex
I0510 16:30:45.127029 39557 net.cpp:406] conv2_ex <- conv1_dw
I0510 16:30:45.127035 39557 net.cpp:380] conv2_ex -> conv2_ex
I0510 16:30:45.129163 39557 net.cpp:122] Setting up conv2_ex
I0510 16:30:45.129178 39557 net.cpp:129] Top shape: 64 128 56 48 (22020096)
I0510 16:30:45.129191 39557 net.cpp:137] Memory required for data: 448660224
I0510 16:30:45.129199 39557 layer_factory.hpp:77] Creating layer conv2_ex/bn
I0510 16:30:45.129207 39557 net.cpp:84] Creating Layer conv2_ex/bn
I0510 16:30:45.129222 39557 net.cpp:406] conv2_ex/bn <- conv2_ex
I0510 16:30:45.129230 39557 net.cpp:367] conv2_ex/bn -> conv2_ex (in-place)
I0510 16:30:45.129423 39557 net.cpp:122] Setting up conv2_ex/bn
I0510 16:30:45.129432 39557 net.cpp:129] Top shape: 64 128 56 48 (22020096)
I0510 16:30:45.129436 39557 net.cpp:137] Memory required for data: 536740608
I0510 16:30:45.129447 39557 layer_factory.hpp:77] Creating layer conv2_ex/scale
I0510 16:30:45.129456 39557 net.cpp:84] Creating Layer conv2_ex/scale
I0510 16:30:45.129458 39557 net.cpp:406] conv2_ex/scale <- conv2_ex
I0510 16:30:45.129463 39557 net.cpp:367] conv2_ex/scale -> conv2_ex (in-place)
I0510 16:30:45.129506 39557 layer_factory.hpp:77] Creating layer conv2_ex/scale
I0510 16:30:45.129618 39557 net.cpp:122] Setting up conv2_ex/scale
I0510 16:30:45.129626 39557 net.cpp:129] Top shape: 64 128 56 48 (22020096)
I0510 16:30:45.129628 39557 net.cpp:137] Memory required for data: 624820992
I0510 16:30:45.129634 39557 layer_factory.hpp:77] Creating layer relu2_ex
I0510 16:30:45.129652 39557 net.cpp:84] Creating Layer relu2_ex
I0510 16:30:45.129657 39557 net.cpp:406] relu2_ex <- conv2_ex
I0510 16:30:45.129662 39557 net.cpp:367] relu2_ex -> conv2_ex (in-place)
I0510 16:30:45.131059 39557 net.cpp:122] Setting up relu2_ex
I0510 16:30:45.131074 39557 net.cpp:129] Top shape: 64 128 56 48 (22020096)
I0510 16:30:45.131078 39557 net.cpp:137] Memory required for data: 712901376
I0510 16:30:45.131098 39557 layer_factory.hpp:77] Creating layer conv2_dw
I0510 16:30:45.131106 39557 net.cpp:84] Creating Layer conv2_dw
I0510 16:30:45.131111 39557 net.cpp:406] conv2_dw <- conv2_ex
I0510 16:30:45.131119 39557 net.cpp:380] conv2_dw -> conv2_dw
I0510 16:30:45.131312 39557 net.cpp:122] Setting up conv2_dw
I0510 16:30:45.131322 39557 net.cpp:129] Top shape: 64 128 28 24 (5505024)
I0510 16:30:45.131325 39557 net.cpp:137] Memory required for data: 734921472
I0510 16:30:45.131348 39557 layer_factory.hpp:77] Creating layer conv2_dw/bn
I0510 16:30:45.131357 39557 net.cpp:84] Creating Layer conv2_dw/bn
I0510 16:30:45.131361 39557 net.cpp:406] conv2_dw/bn <- conv2_dw
I0510 16:30:45.131366 39557 net.cpp:367] conv2_dw/bn -> conv2_dw (in-place)
I0510 16:30:45.131552 39557 net.cpp:122] Setting up conv2_dw/bn
I0510 16:30:45.131561 39557 net.cpp:129] Top shape: 64 128 28 24 (5505024)
I0510 16:30:45.131563 39557 net.cpp:137] Memory required for data: 756941568
I0510 16:30:45.131572 39557 layer_factory.hpp:77] Creating layer conv2_dw/scale
I0510 16:30:45.131582 39557 net.cpp:84] Creating Layer conv2_dw/scale
I0510 16:30:45.131587 39557 net.cpp:406] conv2_dw/scale <- conv2_dw
I0510 16:30:45.131592 39557 net.cpp:367] conv2_dw/scale -> conv2_dw (in-place)
I0510 16:30:45.131635 39557 layer_factory.hpp:77] Creating layer conv2_dw/scale
I0510 16:30:45.131759 39557 net.cpp:122] Setting up conv2_dw/scale
I0510 16:30:45.131767 39557 net.cpp:129] Top shape: 64 128 28 24 (5505024)
I0510 16:30:45.131769 39557 net.cpp:137] Memory required for data: 778961664
I0510 16:30:45.131775 39557 layer_factory.hpp:77] Creating layer relu2_dw
I0510 16:30:45.131784 39557 net.cpp:84] Creating Layer relu2_dw
I0510 16:30:45.131789 39557 net.cpp:406] relu2_dw <- conv2_dw
I0510 16:30:45.131794 39557 net.cpp:367] relu2_dw -> conv2_dw (in-place)
I0510 16:30:45.131920 39557 net.cpp:122] Setting up relu2_dw
I0510 16:30:45.131928 39557 net.cpp:129] Top shape: 64 128 28 24 (5505024)
I0510 16:30:45.131932 39557 net.cpp:137] Memory required for data: 800981760
I0510 16:30:45.131937 39557 layer_factory.hpp:77] Creating layer conv2_em
I0510 16:30:45.131947 39557 net.cpp:84] Creating Layer conv2_em
I0510 16:30:45.131950 39557 net.cpp:406] conv2_em <- conv2_dw
I0510 16:30:45.131956 39557 net.cpp:380] conv2_em -> conv2_em
I0510 16:30:45.133080 39557 net.cpp:122] Setting up conv2_em
I0510 16:30:45.133095 39557 net.cpp:129] Top shape: 64 64 28 24 (2752512)
I0510 16:30:45.133118 39557 net.cpp:137] Memory required for data: 811991808
I0510 16:30:45.133134 39557 layer_factory.hpp:77] Creating layer conv2_em/bn
I0510 16:30:45.133143 39557 net.cpp:84] Creating Layer conv2_em/bn
I0510 16:30:45.133160 39557 net.cpp:406] conv2_em/bn <- conv2_em
I0510 16:30:45.133168 39557 net.cpp:367] conv2_em/bn -> conv2_em (in-place)
I0510 16:30:45.133375 39557 net.cpp:122] Setting up conv2_em/bn
I0510 16:30:45.133384 39557 net.cpp:129] Top shape: 64 64 28 24 (2752512)
I0510 16:30:45.133388 39557 net.cpp:137] Memory required for data: 823001856
I0510 16:30:45.133399 39557 layer_factory.hpp:77] Creating layer conv2_em/scale
I0510 16:30:45.133409 39557 net.cpp:84] Creating Layer conv2_em/scale
I0510 16:30:45.133412 39557 net.cpp:406] conv2_em/scale <- conv2_em
I0510 16:30:45.133416 39557 net.cpp:367] conv2_em/scale -> conv2_em (in-place)
I0510 16:30:45.133464 39557 layer_factory.hpp:77] Creating layer conv2_em/scale
I0510 16:30:45.133584 39557 net.cpp:122] Setting up conv2_em/scale
I0510 16:30:45.133594 39557 net.cpp:129] Top shape: 64 64 28 24 (2752512)
I0510 16:30:45.133597 39557 net.cpp:137] Memory required for data: 834011904
I0510 16:30:45.133607 39557 layer_factory.hpp:77] Creating layer conv2_em_conv2_em/scale_0_split
I0510 16:30:45.133615 39557 net.cpp:84] Creating Layer conv2_em_conv2_em/scale_0_split
I0510 16:30:45.133618 39557 net.cpp:406] conv2_em_conv2_em/scale_0_split <- conv2_em
I0510 16:30:45.133623 39557 net.cpp:380] conv2_em_conv2_em/scale_0_split -> conv2_em_conv2_em/scale_0_split_0
I0510 16:30:45.133631 39557 net.cpp:380] conv2_em_conv2_em/scale_0_split -> conv2_em_conv2_em/scale_0_split_1
I0510 16:30:45.133669 39557 net.cpp:122] Setting up conv2_em_conv2_em/scale_0_split
I0510 16:30:45.133677 39557 net.cpp:129] Top shape: 64 64 28 24 (2752512)
I0510 16:30:45.133682 39557 net.cpp:129] Top shape: 64 64 28 24 (2752512)
I0510 16:30:45.133684 39557 net.cpp:137] Memory required for data: 856032000
I0510 16:30:45.133687 39557 layer_factory.hpp:77] Creating layer conv2_1_ex
I0510 16:30:45.133697 39557 net.cpp:84] Creating Layer conv2_1_ex
I0510 16:30:45.133702 39557 net.cpp:406] conv2_1_ex <- conv2_em_conv2_em/scale_0_split_0
I0510 16:30:45.133708 39557 net.cpp:380] conv2_1_ex -> conv2_1_ex
I0510 16:30:45.134884 39557 net.cpp:122] Setting up conv2_1_ex
I0510 16:30:45.134899 39557 net.cpp:129] Top shape: 64 128 28 24 (5505024)
I0510 16:30:45.134903 39557 net.cpp:137] Memory required for data: 878052096
I0510 16:30:45.134910 39557 layer_factory.hpp:77] Creating layer conv2_1_ex/bn
I0510 16:30:45.134932 39557 net.cpp:84] Creating Layer conv2_1_ex/bn
I0510 16:30:45.134949 39557 net.cpp:406] conv2_1_ex/bn <- conv2_1_ex
I0510 16:30:45.134958 39557 net.cpp:367] conv2_1_ex/bn -> conv2_1_ex (in-place)
I0510 16:30:45.135148 39557 net.cpp:122] Setting up conv2_1_ex/bn
I0510 16:30:45.135156 39557 net.cpp:129] Top shape: 64 128 28 24 (5505024)
I0510 16:30:45.135159 39557 net.cpp:137] Memory required for data: 900072192
I0510 16:30:45.135166 39557 layer_factory.hpp:77] Creating layer conv2_1_ex/scale
I0510 16:30:45.135174 39557 net.cpp:84] Creating Layer conv2_1_ex/scale
I0510 16:30:45.135176 39557 net.cpp:406] conv2_1_ex/scale <- conv2_1_ex
I0510 16:30:45.135181 39557 net.cpp:367] conv2_1_ex/scale -> conv2_1_ex (in-place)
I0510 16:30:45.135223 39557 layer_factory.hpp:77] Creating layer conv2_1_ex/scale
I0510 16:30:45.135342 39557 net.cpp:122] Setting up conv2_1_ex/scale
I0510 16:30:45.135354 39557 net.cpp:129] Top shape: 64 128 28 24 (5505024)
I0510 16:30:45.135356 39557 net.cpp:137] Memory required for data: 922092288
I0510 16:30:45.135362 39557 layer_factory.hpp:77] Creating layer relu2_1_ex
I0510 16:30:45.135367 39557 net.cpp:84] Creating Layer relu2_1_ex
I0510 16:30:45.135371 39557 net.cpp:406] relu2_1_ex <- conv2_1_ex
I0510 16:30:45.135375 39557 net.cpp:367] relu2_1_ex -> conv2_1_ex (in-place)
I0510 16:30:45.135527 39557 net.cpp:122] Setting up relu2_1_ex
I0510 16:30:45.135536 39557 net.cpp:129] Top shape: 64 128 28 24 (5505024)
I0510 16:30:45.135540 39557 net.cpp:137] Memory required for data: 944112384
I0510 16:30:45.135560 39557 layer_factory.hpp:77] Creating layer conv2_1_dw
I0510 16:30:45.135568 39557 net.cpp:84] Creating Layer conv2_1_dw
I0510 16:30:45.135573 39557 net.cpp:406] conv2_1_dw <- conv2_1_ex
I0510 16:30:45.135581 39557 net.cpp:380] conv2_1_dw -> conv2_1_dw
I0510 16:30:45.135795 39557 net.cpp:122] Setting up conv2_1_dw
I0510 16:30:45.135804 39557 net.cpp:129] Top shape: 64 128 28 24 (5505024)
I0510 16:30:45.135807 39557 net.cpp:137] Memory required for data: 966132480
I0510 16:30:45.135823 39557 layer_factory.hpp:77] Creating layer conv2_1_dw/bn
I0510 16:30:45.135839 39557 net.cpp:84] Creating Layer conv2_1_dw/bn
I0510 16:30:45.135843 39557 net.cpp:406] conv2_1_dw/bn <- conv2_1_dw
I0510 16:30:45.135850 39557 net.cpp:367] conv2_1_dw/bn -> conv2_1_dw (in-place)
I0510 16:30:45.136029 39557 net.cpp:122] Setting up conv2_1_dw/bn
I0510 16:30:45.136037 39557 net.cpp:129] Top shape: 64 128 28 24 (5505024)
I0510 16:30:45.136040 39557 net.cpp:137] Memory required for data: 988152576
I0510 16:30:45.136047 39557 layer_factory.hpp:77] Creating layer conv2_1_dw/scale
I0510 16:30:45.136056 39557 net.cpp:84] Creating Layer conv2_1_dw/scale
I0510 16:30:45.136060 39557 net.cpp:406] conv2_1_dw/scale <- conv2_1_dw
I0510 16:30:45.136065 39557 net.cpp:367] conv2_1_dw/scale -> conv2_1_dw (in-place)
I0510 16:30:45.136106 39557 layer_factory.hpp:77] Creating layer conv2_1_dw/scale
I0510 16:30:45.136215 39557 net.cpp:122] Setting up conv2_1_dw/scale
I0510 16:30:45.136224 39557 net.cpp:129] Top shape: 64 128 28 24 (5505024)
I0510 16:30:45.136225 39557 net.cpp:137] Memory required for data: 1010172672
I0510 16:30:45.136232 39557 layer_factory.hpp:77] Creating layer relu2_1_dw
I0510 16:30:45.136240 39557 net.cpp:84] Creating Layer relu2_1_dw
I0510 16:30:45.136245 39557 net.cpp:406] relu2_1_dw <- conv2_1_dw
I0510 16:30:45.136250 39557 net.cpp:367] relu2_1_dw -> conv2_1_dw (in-place)
I0510 16:30:45.136392 39557 net.cpp:122] Setting up relu2_1_dw
I0510 16:30:45.136400 39557 net.cpp:129] Top shape: 64 128 28 24 (5505024)
I0510 16:30:45.136404 39557 net.cpp:137] Memory required for data: 1032192768
I0510 16:30:45.136409 39557 layer_factory.hpp:77] Creating layer conv2_1_em
I0510 16:30:45.136418 39557 net.cpp:84] Creating Layer conv2_1_em
I0510 16:30:45.136425 39557 net.cpp:406] conv2_1_em <- conv2_1_dw
I0510 16:30:45.136430 39557 net.cpp:380] conv2_1_em -> conv2_1_em
I0510 16:30:45.137631 39557 net.cpp:122] Setting up conv2_1_em
I0510 16:30:45.137662 39557 net.cpp:129] Top shape: 64 64 28 24 (2752512)
I0510 16:30:45.137666 39557 net.cpp:137] Memory required for data: 1043202816
I0510 16:30:45.137672 39557 layer_factory.hpp:77] Creating layer conv2_1_em/bn
I0510 16:30:45.137679 39557 net.cpp:84] Creating Layer conv2_1_em/bn
I0510 16:30:45.137683 39557 net.cpp:406] conv2_1_em/bn <- conv2_1_em
I0510 16:30:45.137691 39557 net.cpp:367] conv2_1_em/bn -> conv2_1_em (in-place)
I0510 16:30:45.137913 39557 net.cpp:122] Setting up conv2_1_em/bn
I0510 16:30:45.137923 39557 net.cpp:129] Top shape: 64 64 28 24 (2752512)
I0510 16:30:45.137926 39557 net.cpp:137] Memory required for data: 1054212864
I0510 16:30:45.137936 39557 layer_factory.hpp:77] Creating layer conv2_1_em/scale
I0510 16:30:45.137944 39557 net.cpp:84] Creating Layer conv2_1_em/scale
I0510 16:30:45.137948 39557 net.cpp:406] conv2_1_em/scale <- conv2_1_em
I0510 16:30:45.137953 39557 net.cpp:367] conv2_1_em/scale -> conv2_1_em (in-place)
I0510 16:30:45.138010 39557 layer_factory.hpp:77] Creating layer conv2_1_em/scale
I0510 16:30:45.138128 39557 net.cpp:122] Setting up conv2_1_em/scale
I0510 16:30:45.138137 39557 net.cpp:129] Top shape: 64 64 28 24 (2752512)
I0510 16:30:45.138140 39557 net.cpp:137] Memory required for data: 1065222912
I0510 16:30:45.138146 39557 layer_factory.hpp:77] Creating layer res2_1
I0510 16:30:45.138152 39557 net.cpp:84] Creating Layer res2_1
I0510 16:30:45.138155 39557 net.cpp:406] res2_1 <- conv2_em_conv2_em/scale_0_split_1
I0510 16:30:45.138159 39557 net.cpp:406] res2_1 <- conv2_1_em
I0510 16:30:45.138164 39557 net.cpp:380] res2_1 -> res2_1
I0510 16:30:45.138202 39557 net.cpp:122] Setting up res2_1
I0510 16:30:45.138211 39557 net.cpp:129] Top shape: 64 64 28 24 (2752512)
I0510 16:30:45.138214 39557 net.cpp:137] Memory required for data: 1076232960
I0510 16:30:45.138217 39557 layer_factory.hpp:77] Creating layer res2_1_res2_1_0_split
I0510 16:30:45.138223 39557 net.cpp:84] Creating Layer res2_1_res2_1_0_split
I0510 16:30:45.138226 39557 net.cpp:406] res2_1_res2_1_0_split <- res2_1
I0510 16:30:45.138231 39557 net.cpp:380] res2_1_res2_1_0_split -> res2_1_res2_1_0_split_0
I0510 16:30:45.138243 39557 net.cpp:380] res2_1_res2_1_0_split -> res2_1_res2_1_0_split_1
I0510 16:30:45.138283 39557 net.cpp:122] Setting up res2_1_res2_1_0_split
I0510 16:30:45.138290 39557 net.cpp:129] Top shape: 64 64 28 24 (2752512)
I0510 16:30:45.138294 39557 net.cpp:129] Top shape: 64 64 28 24 (2752512)
I0510 16:30:45.138296 39557 net.cpp:137] Memory required for data: 1098253056
I0510 16:30:45.138301 39557 layer_factory.hpp:77] Creating layer conv2_2_ex
I0510 16:30:45.138327 39557 net.cpp:84] Creating Layer conv2_2_ex
I0510 16:30:45.138332 39557 net.cpp:406] conv2_2_ex <- res2_1_res2_1_0_split_0
I0510 16:30:45.138340 39557 net.cpp:380] conv2_2_ex -> conv2_2_ex
I0510 16:30:45.139557 39557 net.cpp:122] Setting up conv2_2_ex
I0510 16:30:45.139573 39557 net.cpp:129] Top shape: 64 128 28 24 (5505024)
I0510 16:30:45.139588 39557 net.cpp:137] Memory required for data: 1120273152
I0510 16:30:45.139593 39557 layer_factory.hpp:77] Creating layer conv2_2_ex/bn
I0510 16:30:45.139602 39557 net.cpp:84] Creating Layer conv2_2_ex/bn
I0510 16:30:45.139606 39557 net.cpp:406] conv2_2_ex/bn <- conv2_2_ex
I0510 16:30:45.139614 39557 net.cpp:367] conv2_2_ex/bn -> conv2_2_ex (in-place)
I0510 16:30:45.139822 39557 net.cpp:122] Setting up conv2_2_ex/bn
I0510 16:30:45.139830 39557 net.cpp:129] Top shape: 64 128 28 24 (5505024)
I0510 16:30:45.139833 39557 net.cpp:137] Memory required for data: 1142293248
I0510 16:30:45.139840 39557 layer_factory.hpp:77] Creating layer conv2_2_ex/scale
I0510 16:30:45.139848 39557 net.cpp:84] Creating Layer conv2_2_ex/scale
I0510 16:30:45.139853 39557 net.cpp:406] conv2_2_ex/scale <- conv2_2_ex
I0510 16:30:45.139858 39557 net.cpp:367] conv2_2_ex/scale -> conv2_2_ex (in-place)
I0510 16:30:45.139904 39557 layer_factory.hpp:77] Creating layer conv2_2_ex/scale
I0510 16:30:45.140020 39557 net.cpp:122] Setting up conv2_2_ex/scale
I0510 16:30:45.140029 39557 net.cpp:129] Top shape: 64 128 28 24 (5505024)
I0510 16:30:45.140033 39557 net.cpp:137] Memory required for data: 1164313344
I0510 16:30:45.140041 39557 layer_factory.hpp:77] Creating layer relu2_2_ex
I0510 16:30:45.140048 39557 net.cpp:84] Creating Layer relu2_2_ex
I0510 16:30:45.140053 39557 net.cpp:406] relu2_2_ex <- conv2_2_ex
I0510 16:30:45.140058 39557 net.cpp:367] relu2_2_ex -> conv2_2_ex (in-place)
I0510 16:30:45.140203 39557 net.cpp:122] Setting up relu2_2_ex
I0510 16:30:45.140211 39557 net.cpp:129] Top shape: 64 128 28 24 (5505024)
I0510 16:30:45.140214 39557 net.cpp:137] Memory required for data: 1186333440
I0510 16:30:45.140219 39557 layer_factory.hpp:77] Creating layer conv2_2_dw
I0510 16:30:45.140228 39557 net.cpp:84] Creating Layer conv2_2_dw
I0510 16:30:45.140244 39557 net.cpp:406] conv2_2_dw <- conv2_2_ex
I0510 16:30:45.140249 39557 net.cpp:380] conv2_2_dw -> conv2_2_dw
I0510 16:30:45.140449 39557 net.cpp:122] Setting up conv2_2_dw
I0510 16:30:45.140458 39557 net.cpp:129] Top shape: 64 128 28 24 (5505024)
I0510 16:30:45.140461 39557 net.cpp:137] Memory required for data: 1208353536
I0510 16:30:45.140466 39557 layer_factory.hpp:77] Creating layer conv2_2_dw/bn
I0510 16:30:45.140472 39557 net.cpp:84] Creating Layer conv2_2_dw/bn
I0510 16:30:45.140475 39557 net.cpp:406] conv2_2_dw/bn <- conv2_2_dw
I0510 16:30:45.140482 39557 net.cpp:367] conv2_2_dw/bn -> conv2_2_dw (in-place)
I0510 16:30:45.140672 39557 net.cpp:122] Setting up conv2_2_dw/bn
I0510 16:30:45.140681 39557 net.cpp:129] Top shape: 64 128 28 24 (5505024)
I0510 16:30:45.140683 39557 net.cpp:137] Memory required for data: 1230373632
I0510 16:30:45.140697 39557 layer_factory.hpp:77] Creating layer conv2_2_dw/scale
I0510 16:30:45.140719 39557 net.cpp:84] Creating Layer conv2_2_dw/scale
I0510 16:30:45.140724 39557 net.cpp:406] conv2_2_dw/scale <- conv2_2_dw
I0510 16:30:45.140729 39557 net.cpp:367] conv2_2_dw/scale -> conv2_2_dw (in-place)
I0510 16:30:45.140789 39557 layer_factory.hpp:77] Creating layer conv2_2_dw/scale
I0510 16:30:45.140903 39557 net.cpp:122] Setting up conv2_2_dw/scale
I0510 16:30:45.140911 39557 net.cpp:129] Top shape: 64 128 28 24 (5505024)
I0510 16:30:45.140914 39557 net.cpp:137] Memory required for data: 1252393728
I0510 16:30:45.140920 39557 layer_factory.hpp:77] Creating layer relu2_2_dw
I0510 16:30:45.140925 39557 net.cpp:84] Creating Layer relu2_2_dw
I0510 16:30:45.140928 39557 net.cpp:406] relu2_2_dw <- conv2_2_dw
I0510 16:30:45.140938 39557 net.cpp:367] relu2_2_dw -> conv2_2_dw (in-place)
I0510 16:30:45.142144 39557 net.cpp:122] Setting up relu2_2_dw
I0510 16:30:45.142168 39557 net.cpp:129] Top shape: 64 128 28 24 (5505024)
I0510 16:30:45.142171 39557 net.cpp:137] Memory required for data: 1274413824
I0510 16:30:45.142177 39557 layer_factory.hpp:77] Creating layer conv2_2_em
I0510 16:30:45.142186 39557 net.cpp:84] Creating Layer conv2_2_em
I0510 16:30:45.142189 39557 net.cpp:406] conv2_2_em <- conv2_2_dw
I0510 16:30:45.142199 39557 net.cpp:380] conv2_2_em -> conv2_2_em
I0510 16:30:45.143365 39557 net.cpp:122] Setting up conv2_2_em
I0510 16:30:45.143379 39557 net.cpp:129] Top shape: 64 64 28 24 (2752512)
I0510 16:30:45.143393 39557 net.cpp:137] Memory required for data: 1285423872
I0510 16:30:45.143400 39557 layer_factory.hpp:77] Creating layer conv2_2_em/bn
I0510 16:30:45.143409 39557 net.cpp:84] Creating Layer conv2_2_em/bn
I0510 16:30:45.143414 39557 net.cpp:406] conv2_2_em/bn <- conv2_2_em
I0510 16:30:45.143420 39557 net.cpp:367] conv2_2_em/bn -> conv2_2_em (in-place)
I0510 16:30:45.143625 39557 net.cpp:122] Setting up conv2_2_em/bn
I0510 16:30:45.143633 39557 net.cpp:129] Top shape: 64 64 28 24 (2752512)
I0510 16:30:45.143636 39557 net.cpp:137] Memory required for data: 1296433920
I0510 16:30:45.143643 39557 layer_factory.hpp:77] Creating layer conv2_2_em/scale
I0510 16:30:45.143651 39557 net.cpp:84] Creating Layer conv2_2_em/scale
I0510 16:30:45.143656 39557 net.cpp:406] conv2_2_em/scale <- conv2_2_em
I0510 16:30:45.143659 39557 net.cpp:367] conv2_2_em/scale -> conv2_2_em (in-place)
I0510 16:30:45.143705 39557 layer_factory.hpp:77] Creating layer conv2_2_em/scale
I0510 16:30:45.143827 39557 net.cpp:122] Setting up conv2_2_em/scale
I0510 16:30:45.143837 39557 net.cpp:129] Top shape: 64 64 28 24 (2752512)
I0510 16:30:45.143841 39557 net.cpp:137] Memory required for data: 1307443968
I0510 16:30:45.143847 39557 layer_factory.hpp:77] Creating layer res2_2
I0510 16:30:45.143852 39557 net.cpp:84] Creating Layer res2_2
I0510 16:30:45.143857 39557 net.cpp:406] res2_2 <- res2_1_res2_1_0_split_1
I0510 16:30:45.143860 39557 net.cpp:406] res2_2 <- conv2_2_em
I0510 16:30:45.143864 39557 net.cpp:380] res2_2 -> res2_2
I0510 16:30:45.143892 39557 net.cpp:122] Setting up res2_2
I0510 16:30:45.143899 39557 net.cpp:129] Top shape: 64 64 28 24 (2752512)
I0510 16:30:45.143903 39557 net.cpp:137] Memory required for data: 1318454016
I0510 16:30:45.143906 39557 layer_factory.hpp:77] Creating layer res2_2_res2_2_0_split
I0510 16:30:45.143913 39557 net.cpp:84] Creating Layer res2_2_res2_2_0_split
I0510 16:30:45.143915 39557 net.cpp:406] res2_2_res2_2_0_split <- res2_2
I0510 16:30:45.143920 39557 net.cpp:380] res2_2_res2_2_0_split -> res2_2_res2_2_0_split_0
I0510 16:30:45.143929 39557 net.cpp:380] res2_2_res2_2_0_split -> res2_2_res2_2_0_split_1
I0510 16:30:45.143963 39557 net.cpp:122] Setting up res2_2_res2_2_0_split
I0510 16:30:45.143970 39557 net.cpp:129] Top shape: 64 64 28 24 (2752512)
I0510 16:30:45.143975 39557 net.cpp:129] Top shape: 64 64 28 24 (2752512)
I0510 16:30:45.143976 39557 net.cpp:137] Memory required for data: 1340474112
I0510 16:30:45.143980 39557 layer_factory.hpp:77] Creating layer conv2_3_ex
I0510 16:30:45.143990 39557 net.cpp:84] Creating Layer conv2_3_ex
I0510 16:30:45.144004 39557 net.cpp:406] conv2_3_ex <- res2_2_res2_2_0_split_0
I0510 16:30:45.144011 39557 net.cpp:380] conv2_3_ex -> conv2_3_ex
I0510 16:30:45.145143 39557 net.cpp:122] Setting up conv2_3_ex
I0510 16:30:45.145159 39557 net.cpp:129] Top shape: 64 128 28 24 (5505024)
I0510 16:30:45.145164 39557 net.cpp:137] Memory required for data: 1362494208
I0510 16:30:45.145169 39557 layer_factory.hpp:77] Creating layer conv2_3_ex/bn
I0510 16:30:45.145175 39557 net.cpp:84] Creating Layer conv2_3_ex/bn
I0510 16:30:45.145179 39557 net.cpp:406] conv2_3_ex/bn <- conv2_3_ex
I0510 16:30:45.145186 39557 net.cpp:367] conv2_3_ex/bn -> conv2_3_ex (in-place)
I0510 16:30:45.145383 39557 net.cpp:122] Setting up conv2_3_ex/bn
I0510 16:30:45.145392 39557 net.cpp:129] Top shape: 64 128 28 24 (5505024)
I0510 16:30:45.145395 39557 net.cpp:137] Memory required for data: 1384514304
I0510 16:30:45.145406 39557 layer_factory.hpp:77] Creating layer conv2_3_ex/scale
I0510 16:30:45.145412 39557 net.cpp:84] Creating Layer conv2_3_ex/scale
I0510 16:30:45.145416 39557 net.cpp:406] conv2_3_ex/scale <- conv2_3_ex
I0510 16:30:45.145422 39557 net.cpp:367] conv2_3_ex/scale -> conv2_3_ex (in-place)
I0510 16:30:45.145462 39557 layer_factory.hpp:77] Creating layer conv2_3_ex/scale
I0510 16:30:45.145579 39557 net.cpp:122] Setting up conv2_3_ex/scale
I0510 16:30:45.145587 39557 net.cpp:129] Top shape: 64 128 28 24 (5505024)
I0510 16:30:45.145591 39557 net.cpp:137] Memory required for data: 1406534400
I0510 16:30:45.145596 39557 layer_factory.hpp:77] Creating layer relu2_3_ex
I0510 16:30:45.145601 39557 net.cpp:84] Creating Layer relu2_3_ex
I0510 16:30:45.145606 39557 net.cpp:406] relu2_3_ex <- conv2_3_ex
I0510 16:30:45.145613 39557 net.cpp:367] relu2_3_ex -> conv2_3_ex (in-place)
I0510 16:30:45.145746 39557 net.cpp:122] Setting up relu2_3_ex
I0510 16:30:45.145756 39557 net.cpp:129] Top shape: 64 128 28 24 (5505024)
I0510 16:30:45.145758 39557 net.cpp:137] Memory required for data: 1428554496
I0510 16:30:45.145762 39557 layer_factory.hpp:77] Creating layer conv2_3_dw
I0510 16:30:45.145769 39557 net.cpp:84] Creating Layer conv2_3_dw
I0510 16:30:45.145772 39557 net.cpp:406] conv2_3_dw <- conv2_3_ex
I0510 16:30:45.145781 39557 net.cpp:380] conv2_3_dw -> conv2_3_dw
I0510 16:30:45.145977 39557 net.cpp:122] Setting up conv2_3_dw
I0510 16:30:45.145987 39557 net.cpp:129] Top shape: 64 128 28 24 (5505024)
I0510 16:30:45.145989 39557 net.cpp:137] Memory required for data: 1450574592
I0510 16:30:45.145995 39557 layer_factory.hpp:77] Creating layer conv2_3_dw/bn
I0510 16:30:45.146001 39557 net.cpp:84] Creating Layer conv2_3_dw/bn
I0510 16:30:45.146005 39557 net.cpp:406] conv2_3_dw/bn <- conv2_3_dw
I0510 16:30:45.146010 39557 net.cpp:367] conv2_3_dw/bn -> conv2_3_dw (in-place)
I0510 16:30:45.146199 39557 net.cpp:122] Setting up conv2_3_dw/bn
I0510 16:30:45.146209 39557 net.cpp:129] Top shape: 64 128 28 24 (5505024)
I0510 16:30:45.146211 39557 net.cpp:137] Memory required for data: 1472594688
I0510 16:30:45.146217 39557 layer_factory.hpp:77] Creating layer conv2_3_dw/scale
I0510 16:30:45.146224 39557 net.cpp:84] Creating Layer conv2_3_dw/scale
I0510 16:30:45.146227 39557 net.cpp:406] conv2_3_dw/scale <- conv2_3_dw
I0510 16:30:45.146231 39557 net.cpp:367] conv2_3_dw/scale -> conv2_3_dw (in-place)
I0510 16:30:45.146276 39557 layer_factory.hpp:77] Creating layer conv2_3_dw/scale
I0510 16:30:45.146389 39557 net.cpp:122] Setting up conv2_3_dw/scale
I0510 16:30:45.146397 39557 net.cpp:129] Top shape: 64 128 28 24 (5505024)
I0510 16:30:45.146400 39557 net.cpp:137] Memory required for data: 1494614784
I0510 16:30:45.146405 39557 layer_factory.hpp:77] Creating layer relu2_3_dw
I0510 16:30:45.146412 39557 net.cpp:84] Creating Layer relu2_3_dw
I0510 16:30:45.146415 39557 net.cpp:406] relu2_3_dw <- conv2_3_dw
I0510 16:30:45.146420 39557 net.cpp:367] relu2_3_dw -> conv2_3_dw (in-place)
I0510 16:30:45.146549 39557 net.cpp:122] Setting up relu2_3_dw
I0510 16:30:45.146558 39557 net.cpp:129] Top shape: 64 128 28 24 (5505024)
I0510 16:30:45.146560 39557 net.cpp:137] Memory required for data: 1516634880
I0510 16:30:45.146579 39557 layer_factory.hpp:77] Creating layer conv2_3_em
I0510 16:30:45.146589 39557 net.cpp:84] Creating Layer conv2_3_em
I0510 16:30:45.146594 39557 net.cpp:406] conv2_3_em <- conv2_3_dw
I0510 16:30:45.146598 39557 net.cpp:380] conv2_3_em -> conv2_3_em
I0510 16:30:45.147781 39557 net.cpp:122] Setting up conv2_3_em
I0510 16:30:45.147795 39557 net.cpp:129] Top shape: 64 64 28 24 (2752512)
I0510 16:30:45.147799 39557 net.cpp:137] Memory required for data: 1527644928
I0510 16:30:45.147805 39557 layer_factory.hpp:77] Creating layer conv2_3_em/bn
I0510 16:30:45.147812 39557 net.cpp:84] Creating Layer conv2_3_em/bn
I0510 16:30:45.147815 39557 net.cpp:406] conv2_3_em/bn <- conv2_3_em
I0510 16:30:45.147821 39557 net.cpp:367] conv2_3_em/bn -> conv2_3_em (in-place)
I0510 16:30:45.148047 39557 net.cpp:122] Setting up conv2_3_em/bn
I0510 16:30:45.148056 39557 net.cpp:129] Top shape: 64 64 28 24 (2752512)
I0510 16:30:45.148059 39557 net.cpp:137] Memory required for data: 1538654976
I0510 16:30:45.148069 39557 layer_factory.hpp:77] Creating layer conv2_3_em/scale
I0510 16:30:45.148078 39557 net.cpp:84] Creating Layer conv2_3_em/scale
I0510 16:30:45.148082 39557 net.cpp:406] conv2_3_em/scale <- conv2_3_em
I0510 16:30:45.148088 39557 net.cpp:367] conv2_3_em/scale -> conv2_3_em (in-place)
I0510 16:30:45.148133 39557 layer_factory.hpp:77] Creating layer conv2_3_em/scale
I0510 16:30:45.148262 39557 net.cpp:122] Setting up conv2_3_em/scale
I0510 16:30:45.148272 39557 net.cpp:129] Top shape: 64 64 28 24 (2752512)
I0510 16:30:45.148275 39557 net.cpp:137] Memory required for data: 1549665024
I0510 16:30:45.148283 39557 layer_factory.hpp:77] Creating layer res2_3
I0510 16:30:45.148288 39557 net.cpp:84] Creating Layer res2_3
I0510 16:30:45.148293 39557 net.cpp:406] res2_3 <- res2_2_res2_2_0_split_1
I0510 16:30:45.148296 39557 net.cpp:406] res2_3 <- conv2_3_em
I0510 16:30:45.148301 39557 net.cpp:380] res2_3 -> res2_3
I0510 16:30:45.148330 39557 net.cpp:122] Setting up res2_3
I0510 16:30:45.148339 39557 net.cpp:129] Top shape: 64 64 28 24 (2752512)
I0510 16:30:45.148353 39557 net.cpp:137] Memory required for data: 1560675072
I0510 16:30:45.148356 39557 layer_factory.hpp:77] Creating layer res2_3_res2_3_0_split
I0510 16:30:45.148362 39557 net.cpp:84] Creating Layer res2_3_res2_3_0_split
I0510 16:30:45.148365 39557 net.cpp:406] res2_3_res2_3_0_split <- res2_3
I0510 16:30:45.148370 39557 net.cpp:380] res2_3_res2_3_0_split -> res2_3_res2_3_0_split_0
I0510 16:30:45.148376 39557 net.cpp:380] res2_3_res2_3_0_split -> res2_3_res2_3_0_split_1
I0510 16:30:45.148414 39557 net.cpp:122] Setting up res2_3_res2_3_0_split
I0510 16:30:45.148422 39557 net.cpp:129] Top shape: 64 64 28 24 (2752512)
I0510 16:30:45.148425 39557 net.cpp:129] Top shape: 64 64 28 24 (2752512)
I0510 16:30:45.148428 39557 net.cpp:137] Memory required for data: 1582695168
I0510 16:30:45.148432 39557 layer_factory.hpp:77] Creating layer conv2_4_ex
I0510 16:30:45.148442 39557 net.cpp:84] Creating Layer conv2_4_ex
I0510 16:30:45.148445 39557 net.cpp:406] conv2_4_ex <- res2_3_res2_3_0_split_0
I0510 16:30:45.148452 39557 net.cpp:380] conv2_4_ex -> conv2_4_ex
I0510 16:30:45.149595 39557 net.cpp:122] Setting up conv2_4_ex
I0510 16:30:45.149608 39557 net.cpp:129] Top shape: 64 128 28 24 (5505024)
I0510 16:30:45.149622 39557 net.cpp:137] Memory required for data: 1604715264
I0510 16:30:45.149629 39557 layer_factory.hpp:77] Creating layer conv2_4_ex/bn
I0510 16:30:45.149638 39557 net.cpp:84] Creating Layer conv2_4_ex/bn
I0510 16:30:45.149642 39557 net.cpp:406] conv2_4_ex/bn <- conv2_4_ex
I0510 16:30:45.149652 39557 net.cpp:367] conv2_4_ex/bn -> conv2_4_ex (in-place)
I0510 16:30:45.149852 39557 net.cpp:122] Setting up conv2_4_ex/bn
I0510 16:30:45.149860 39557 net.cpp:129] Top shape: 64 128 28 24 (5505024)
I0510 16:30:45.149863 39557 net.cpp:137] Memory required for data: 1626735360
I0510 16:30:45.149870 39557 layer_factory.hpp:77] Creating layer conv2_4_ex/scale
I0510 16:30:45.149876 39557 net.cpp:84] Creating Layer conv2_4_ex/scale
I0510 16:30:45.149880 39557 net.cpp:406] conv2_4_ex/scale <- conv2_4_ex
I0510 16:30:45.149899 39557 net.cpp:367] conv2_4_ex/scale -> conv2_4_ex (in-place)
I0510 16:30:45.149943 39557 layer_factory.hpp:77] Creating layer conv2_4_ex/scale
I0510 16:30:45.150063 39557 net.cpp:122] Setting up conv2_4_ex/scale
I0510 16:30:45.150071 39557 net.cpp:129] Top shape: 64 128 28 24 (5505024)
I0510 16:30:45.150074 39557 net.cpp:137] Memory required for data: 1648755456
I0510 16:30:45.150080 39557 layer_factory.hpp:77] Creating layer relu2_4_ex
I0510 16:30:45.150091 39557 net.cpp:84] Creating Layer relu2_4_ex
I0510 16:30:45.150094 39557 net.cpp:406] relu2_4_ex <- conv2_4_ex
I0510 16:30:45.150100 39557 net.cpp:367] relu2_4_ex -> conv2_4_ex (in-place)
I0510 16:30:45.150234 39557 net.cpp:122] Setting up relu2_4_ex
I0510 16:30:45.150243 39557 net.cpp:129] Top shape: 64 128 28 24 (5505024)
I0510 16:30:45.150246 39557 net.cpp:137] Memory required for data: 1670775552
I0510 16:30:45.150254 39557 layer_factory.hpp:77] Creating layer conv2_4_dw
I0510 16:30:45.150264 39557 net.cpp:84] Creating Layer conv2_4_dw
I0510 16:30:45.150267 39557 net.cpp:406] conv2_4_dw <- conv2_4_ex
I0510 16:30:45.150274 39557 net.cpp:380] conv2_4_dw -> conv2_4_dw
I0510 16:30:45.150473 39557 net.cpp:122] Setting up conv2_4_dw
I0510 16:30:45.150482 39557 net.cpp:129] Top shape: 64 128 28 24 (5505024)
I0510 16:30:45.150486 39557 net.cpp:137] Memory required for data: 1692795648
I0510 16:30:45.150490 39557 layer_factory.hpp:77] Creating layer conv2_4_dw/bn
I0510 16:30:45.150498 39557 net.cpp:84] Creating Layer conv2_4_dw/bn
I0510 16:30:45.150502 39557 net.cpp:406] conv2_4_dw/bn <- conv2_4_dw
I0510 16:30:45.150506 39557 net.cpp:367] conv2_4_dw/bn -> conv2_4_dw (in-place)
I0510 16:30:45.150699 39557 net.cpp:122] Setting up conv2_4_dw/bn
I0510 16:30:45.150707 39557 net.cpp:129] Top shape: 64 128 28 24 (5505024)
I0510 16:30:45.150710 39557 net.cpp:137] Memory required for data: 1714815744
I0510 16:30:45.150717 39557 layer_factory.hpp:77] Creating layer conv2_4_dw/scale
I0510 16:30:45.150725 39557 net.cpp:84] Creating Layer conv2_4_dw/scale
I0510 16:30:45.150728 39557 net.cpp:406] conv2_4_dw/scale <- conv2_4_dw
I0510 16:30:45.150733 39557 net.cpp:367] conv2_4_dw/scale -> conv2_4_dw (in-place)
I0510 16:30:45.150774 39557 layer_factory.hpp:77] Creating layer conv2_4_dw/scale
I0510 16:30:45.150892 39557 net.cpp:122] Setting up conv2_4_dw/scale
I0510 16:30:45.150899 39557 net.cpp:129] Top shape: 64 128 28 24 (5505024)
I0510 16:30:45.150902 39557 net.cpp:137] Memory required for data: 1736835840
I0510 16:30:45.150909 39557 layer_factory.hpp:77] Creating layer relu2_4_dw
I0510 16:30:45.150916 39557 net.cpp:84] Creating Layer relu2_4_dw
I0510 16:30:45.150920 39557 net.cpp:406] relu2_4_dw <- conv2_4_dw
I0510 16:30:45.150924 39557 net.cpp:367] relu2_4_dw -> conv2_4_dw (in-place)
I0510 16:30:45.151057 39557 net.cpp:122] Setting up relu2_4_dw
I0510 16:30:45.151065 39557 net.cpp:129] Top shape: 64 128 28 24 (5505024)
I0510 16:30:45.151068 39557 net.cpp:137] Memory required for data: 1758855936
I0510 16:30:45.151073 39557 layer_factory.hpp:77] Creating layer conv2_4_em
I0510 16:30:45.151082 39557 net.cpp:84] Creating Layer conv2_4_em
I0510 16:30:45.151087 39557 net.cpp:406] conv2_4_em <- conv2_4_dw
I0510 16:30:45.151091 39557 net.cpp:380] conv2_4_em -> conv2_4_em
I0510 16:30:45.152259 39557 net.cpp:122] Setting up conv2_4_em
I0510 16:30:45.152283 39557 net.cpp:129] Top shape: 64 64 28 24 (2752512)
I0510 16:30:45.152287 39557 net.cpp:137] Memory required for data: 1769865984
I0510 16:30:45.152292 39557 layer_factory.hpp:77] Creating layer conv2_4_em/bn
I0510 16:30:45.152302 39557 net.cpp:84] Creating Layer conv2_4_em/bn
I0510 16:30:45.152305 39557 net.cpp:406] conv2_4_em/bn <- conv2_4_em
I0510 16:30:45.152312 39557 net.cpp:367] conv2_4_em/bn -> conv2_4_em (in-place)
I0510 16:30:45.152521 39557 net.cpp:122] Setting up conv2_4_em/bn
I0510 16:30:45.152530 39557 net.cpp:129] Top shape: 64 64 28 24 (2752512)
I0510 16:30:45.152534 39557 net.cpp:137] Memory required for data: 1780876032
I0510 16:30:45.152542 39557 layer_factory.hpp:77] Creating layer conv2_4_em/scale
I0510 16:30:45.152561 39557 net.cpp:84] Creating Layer conv2_4_em/scale
I0510 16:30:45.152566 39557 net.cpp:406] conv2_4_em/scale <- conv2_4_em
I0510 16:30:45.152573 39557 net.cpp:367] conv2_4_em/scale -> conv2_4_em (in-place)
I0510 16:30:45.152631 39557 layer_factory.hpp:77] Creating layer conv2_4_em/scale
I0510 16:30:45.152760 39557 net.cpp:122] Setting up conv2_4_em/scale
I0510 16:30:45.152768 39557 net.cpp:129] Top shape: 64 64 28 24 (2752512)
I0510 16:30:45.152771 39557 net.cpp:137] Memory required for data: 1791886080
I0510 16:30:45.152777 39557 layer_factory.hpp:77] Creating layer res2_4
I0510 16:30:45.152786 39557 net.cpp:84] Creating Layer res2_4
I0510 16:30:45.152789 39557 net.cpp:406] res2_4 <- res2_3_res2_3_0_split_1
I0510 16:30:45.152794 39557 net.cpp:406] res2_4 <- conv2_4_em
I0510 16:30:45.152802 39557 net.cpp:380] res2_4 -> res2_4
I0510 16:30:45.152833 39557 net.cpp:122] Setting up res2_4
I0510 16:30:45.152842 39557 net.cpp:129] Top shape: 64 64 28 24 (2752512)
I0510 16:30:45.152845 39557 net.cpp:137] Memory required for data: 1802896128
I0510 16:30:45.152848 39557 layer_factory.hpp:77] Creating layer conv3_ex
I0510 16:30:45.152856 39557 net.cpp:84] Creating Layer conv3_ex
I0510 16:30:45.152859 39557 net.cpp:406] conv3_ex <- res2_4
I0510 16:30:45.152868 39557 net.cpp:380] conv3_ex -> conv3_ex
I0510 16:30:45.154090 39557 net.cpp:122] Setting up conv3_ex
I0510 16:30:45.154105 39557 net.cpp:129] Top shape: 64 256 28 24 (11010048)
I0510 16:30:45.154120 39557 net.cpp:137] Memory required for data: 1846936320
I0510 16:30:45.154129 39557 layer_factory.hpp:77] Creating layer conv3_ex/bn
I0510 16:30:45.154137 39557 net.cpp:84] Creating Layer conv3_ex/bn
I0510 16:30:45.154141 39557 net.cpp:406] conv3_ex/bn <- conv3_ex
I0510 16:30:45.154148 39557 net.cpp:367] conv3_ex/bn -> conv3_ex (in-place)
I0510 16:30:45.154356 39557 net.cpp:122] Setting up conv3_ex/bn
I0510 16:30:45.154364 39557 net.cpp:129] Top shape: 64 256 28 24 (11010048)
I0510 16:30:45.154367 39557 net.cpp:137] Memory required for data: 1890976512
I0510 16:30:45.154376 39557 layer_factory.hpp:77] Creating layer conv3_ex/scale
I0510 16:30:45.154383 39557 net.cpp:84] Creating Layer conv3_ex/scale
I0510 16:30:45.154386 39557 net.cpp:406] conv3_ex/scale <- conv3_ex
I0510 16:30:45.154392 39557 net.cpp:367] conv3_ex/scale -> conv3_ex (in-place)
I0510 16:30:45.154438 39557 layer_factory.hpp:77] Creating layer conv3_ex/scale
I0510 16:30:45.154561 39557 net.cpp:122] Setting up conv3_ex/scale
I0510 16:30:45.154569 39557 net.cpp:129] Top shape: 64 256 28 24 (11010048)
I0510 16:30:45.154572 39557 net.cpp:137] Memory required for data: 1935016704
I0510 16:30:45.154578 39557 layer_factory.hpp:77] Creating layer relu3_ex
I0510 16:30:45.154583 39557 net.cpp:84] Creating Layer relu3_ex
I0510 16:30:45.154587 39557 net.cpp:406] relu3_ex <- conv3_ex
I0510 16:30:45.154593 39557 net.cpp:367] relu3_ex -> conv3_ex (in-place)
I0510 16:30:45.155886 39557 net.cpp:122] Setting up relu3_ex
I0510 16:30:45.155901 39557 net.cpp:129] Top shape: 64 256 28 24 (11010048)
I0510 16:30:45.155915 39557 net.cpp:137] Memory required for data: 1979056896
I0510 16:30:45.155923 39557 layer_factory.hpp:77] Creating layer conv3_dw
I0510 16:30:45.155932 39557 net.cpp:84] Creating Layer conv3_dw
I0510 16:30:45.155936 39557 net.cpp:406] conv3_dw <- conv3_ex
I0510 16:30:45.155943 39557 net.cpp:380] conv3_dw -> conv3_dw
I0510 16:30:45.156169 39557 net.cpp:122] Setting up conv3_dw
I0510 16:30:45.156180 39557 net.cpp:129] Top shape: 64 256 14 12 (2752512)
I0510 16:30:45.156183 39557 net.cpp:137] Memory required for data: 1990066944
I0510 16:30:45.156188 39557 layer_factory.hpp:77] Creating layer conv3_dw/bn
I0510 16:30:45.156194 39557 net.cpp:84] Creating Layer conv3_dw/bn
I0510 16:30:45.156198 39557 net.cpp:406] conv3_dw/bn <- conv3_dw
I0510 16:30:45.156203 39557 net.cpp:367] conv3_dw/bn -> conv3_dw (in-place)
I0510 16:30:45.156404 39557 net.cpp:122] Setting up conv3_dw/bn
I0510 16:30:45.156412 39557 net.cpp:129] Top shape: 64 256 14 12 (2752512)
I0510 16:30:45.156415 39557 net.cpp:137] Memory required for data: 2001076992
I0510 16:30:45.156442 39557 layer_factory.hpp:77] Creating layer conv3_dw/scale
I0510 16:30:45.156450 39557 net.cpp:84] Creating Layer conv3_dw/scale
I0510 16:30:45.156453 39557 net.cpp:406] conv3_dw/scale <- conv3_dw
I0510 16:30:45.156458 39557 net.cpp:367] conv3_dw/scale -> conv3_dw (in-place)
I0510 16:30:45.156507 39557 layer_factory.hpp:77] Creating layer conv3_dw/scale
I0510 16:30:45.156628 39557 net.cpp:122] Setting up conv3_dw/scale
I0510 16:30:45.156636 39557 net.cpp:129] Top shape: 64 256 14 12 (2752512)
I0510 16:30:45.156639 39557 net.cpp:137] Memory required for data: 2012087040
I0510 16:30:45.156647 39557 layer_factory.hpp:77] Creating layer relu3_dw
I0510 16:30:45.156656 39557 net.cpp:84] Creating Layer relu3_dw
I0510 16:30:45.156658 39557 net.cpp:406] relu3_dw <- conv3_dw
I0510 16:30:45.156662 39557 net.cpp:367] relu3_dw -> conv3_dw (in-place)
I0510 16:30:45.157883 39557 net.cpp:122] Setting up relu3_dw
I0510 16:30:45.157897 39557 net.cpp:129] Top shape: 64 256 14 12 (2752512)
I0510 16:30:45.157912 39557 net.cpp:137] Memory required for data: 2023097088
I0510 16:30:45.157917 39557 layer_factory.hpp:77] Creating layer conv3_em
I0510 16:30:45.157939 39557 net.cpp:84] Creating Layer conv3_em
I0510 16:30:45.157943 39557 net.cpp:406] conv3_em <- conv3_dw
I0510 16:30:45.157951 39557 net.cpp:380] conv3_em -> conv3_em
I0510 16:30:45.159610 39557 net.cpp:122] Setting up conv3_em
I0510 16:30:45.159624 39557 net.cpp:129] Top shape: 64 128 14 12 (1376256)
I0510 16:30:45.159639 39557 net.cpp:137] Memory required for data: 2028602112
I0510 16:30:45.159658 39557 layer_factory.hpp:77] Creating layer conv3_em/bn
I0510 16:30:45.159669 39557 net.cpp:84] Creating Layer conv3_em/bn
I0510 16:30:45.159674 39557 net.cpp:406] conv3_em/bn <- conv3_em
I0510 16:30:45.159682 39557 net.cpp:367] conv3_em/bn -> conv3_em (in-place)
I0510 16:30:45.159895 39557 net.cpp:122] Setting up conv3_em/bn
I0510 16:30:45.159905 39557 net.cpp:129] Top shape: 64 128 14 12 (1376256)
I0510 16:30:45.159909 39557 net.cpp:137] Memory required for data: 2034107136
I0510 16:30:45.159917 39557 layer_factory.hpp:77] Creating layer conv3_em/scale
I0510 16:30:45.159924 39557 net.cpp:84] Creating Layer conv3_em/scale
I0510 16:30:45.159927 39557 net.cpp:406] conv3_em/scale <- conv3_em
I0510 16:30:45.159935 39557 net.cpp:367] conv3_em/scale -> conv3_em (in-place)
I0510 16:30:45.159976 39557 layer_factory.hpp:77] Creating layer conv3_em/scale
I0510 16:30:45.160095 39557 net.cpp:122] Setting up conv3_em/scale
I0510 16:30:45.160104 39557 net.cpp:129] Top shape: 64 128 14 12 (1376256)
I0510 16:30:45.160106 39557 net.cpp:137] Memory required for data: 2039612160
I0510 16:30:45.160112 39557 layer_factory.hpp:77] Creating layer conv3_em_conv3_em/scale_0_split
I0510 16:30:45.160118 39557 net.cpp:84] Creating Layer conv3_em_conv3_em/scale_0_split
I0510 16:30:45.160121 39557 net.cpp:406] conv3_em_conv3_em/scale_0_split <- conv3_em
I0510 16:30:45.160130 39557 net.cpp:380] conv3_em_conv3_em/scale_0_split -> conv3_em_conv3_em/scale_0_split_0
I0510 16:30:45.160137 39557 net.cpp:380] conv3_em_conv3_em/scale_0_split -> conv3_em_conv3_em/scale_0_split_1
I0510 16:30:45.160177 39557 net.cpp:122] Setting up conv3_em_conv3_em/scale_0_split
I0510 16:30:45.160185 39557 net.cpp:129] Top shape: 64 128 14 12 (1376256)
I0510 16:30:45.160189 39557 net.cpp:129] Top shape: 64 128 14 12 (1376256)
I0510 16:30:45.160192 39557 net.cpp:137] Memory required for data: 2050622208
I0510 16:30:45.160195 39557 layer_factory.hpp:77] Creating layer conv3_1_ex
I0510 16:30:45.160207 39557 net.cpp:84] Creating Layer conv3_1_ex
I0510 16:30:45.160212 39557 net.cpp:406] conv3_1_ex <- conv3_em_conv3_em/scale_0_split_0
I0510 16:30:45.160218 39557 net.cpp:380] conv3_1_ex -> conv3_1_ex
I0510 16:30:45.161572 39557 net.cpp:122] Setting up conv3_1_ex
I0510 16:30:45.161598 39557 net.cpp:129] Top shape: 64 256 14 12 (2752512)
I0510 16:30:45.161602 39557 net.cpp:137] Memory required for data: 2061632256
I0510 16:30:45.161610 39557 layer_factory.hpp:77] Creating layer conv3_1_ex/bn
I0510 16:30:45.161630 39557 net.cpp:84] Creating Layer conv3_1_ex/bn
I0510 16:30:45.161635 39557 net.cpp:406] conv3_1_ex/bn <- conv3_1_ex
I0510 16:30:45.161641 39557 net.cpp:367] conv3_1_ex/bn -> conv3_1_ex (in-place)
I0510 16:30:45.161850 39557 net.cpp:122] Setting up conv3_1_ex/bn
I0510 16:30:45.161860 39557 net.cpp:129] Top shape: 64 256 14 12 (2752512)
I0510 16:30:45.161864 39557 net.cpp:137] Memory required for data: 2072642304
I0510 16:30:45.161871 39557 layer_factory.hpp:77] Creating layer conv3_1_ex/scale
I0510 16:30:45.161880 39557 net.cpp:84] Creating Layer conv3_1_ex/scale
I0510 16:30:45.161883 39557 net.cpp:406] conv3_1_ex/scale <- conv3_1_ex
I0510 16:30:45.161888 39557 net.cpp:367] conv3_1_ex/scale -> conv3_1_ex (in-place)
I0510 16:30:45.161933 39557 layer_factory.hpp:77] Creating layer conv3_1_ex/scale
I0510 16:30:45.162056 39557 net.cpp:122] Setting up conv3_1_ex/scale
I0510 16:30:45.162065 39557 net.cpp:129] Top shape: 64 256 14 12 (2752512)
I0510 16:30:45.162067 39557 net.cpp:137] Memory required for data: 2083652352
I0510 16:30:45.162073 39557 layer_factory.hpp:77] Creating layer relu3_1_ex
I0510 16:30:45.162086 39557 net.cpp:84] Creating Layer relu3_1_ex
I0510 16:30:45.162088 39557 net.cpp:406] relu3_1_ex <- conv3_1_ex
I0510 16:30:45.162093 39557 net.cpp:367] relu3_1_ex -> conv3_1_ex (in-place)
I0510 16:30:45.162205 39557 net.cpp:122] Setting up relu3_1_ex
I0510 16:30:45.162214 39557 net.cpp:129] Top shape: 64 256 14 12 (2752512)
I0510 16:30:45.162217 39557 net.cpp:137] Memory required for data: 2094662400
I0510 16:30:45.162223 39557 layer_factory.hpp:77] Creating layer conv3_1_dw
I0510 16:30:45.162233 39557 net.cpp:84] Creating Layer conv3_1_dw
I0510 16:30:45.162237 39557 net.cpp:406] conv3_1_dw <- conv3_1_ex
I0510 16:30:45.162243 39557 net.cpp:380] conv3_1_dw -> conv3_1_dw
I0510 16:30:45.162456 39557 net.cpp:122] Setting up conv3_1_dw
I0510 16:30:45.162467 39557 net.cpp:129] Top shape: 64 256 14 12 (2752512)
I0510 16:30:45.162469 39557 net.cpp:137] Memory required for data: 2105672448
I0510 16:30:45.162474 39557 layer_factory.hpp:77] Creating layer conv3_1_dw/bn
I0510 16:30:45.162479 39557 net.cpp:84] Creating Layer conv3_1_dw/bn
I0510 16:30:45.162483 39557 net.cpp:406] conv3_1_dw/bn <- conv3_1_dw
I0510 16:30:45.162490 39557 net.cpp:367] conv3_1_dw/bn -> conv3_1_dw (in-place)
I0510 16:30:45.162683 39557 net.cpp:122] Setting up conv3_1_dw/bn
I0510 16:30:45.162693 39557 net.cpp:129] Top shape: 64 256 14 12 (2752512)
I0510 16:30:45.162695 39557 net.cpp:137] Memory required for data: 2116682496
I0510 16:30:45.162703 39557 layer_factory.hpp:77] Creating layer conv3_1_dw/scale
I0510 16:30:45.162708 39557 net.cpp:84] Creating Layer conv3_1_dw/scale
I0510 16:30:45.162711 39557 net.cpp:406] conv3_1_dw/scale <- conv3_1_dw
I0510 16:30:45.162716 39557 net.cpp:367] conv3_1_dw/scale -> conv3_1_dw (in-place)
I0510 16:30:45.162760 39557 layer_factory.hpp:77] Creating layer conv3_1_dw/scale
I0510 16:30:45.162876 39557 net.cpp:122] Setting up conv3_1_dw/scale
I0510 16:30:45.162886 39557 net.cpp:129] Top shape: 64 256 14 12 (2752512)
I0510 16:30:45.162890 39557 net.cpp:137] Memory required for data: 2127692544
I0510 16:30:45.162897 39557 layer_factory.hpp:77] Creating layer relu3_1_dw
I0510 16:30:45.162902 39557 net.cpp:84] Creating Layer relu3_1_dw
I0510 16:30:45.162906 39557 net.cpp:406] relu3_1_dw <- conv3_1_dw
I0510 16:30:45.162911 39557 net.cpp:367] relu3_1_dw -> conv3_1_dw (in-place)
I0510 16:30:45.163024 39557 net.cpp:122] Setting up relu3_1_dw
I0510 16:30:45.163033 39557 net.cpp:129] Top shape: 64 256 14 12 (2752512)
I0510 16:30:45.163036 39557 net.cpp:137] Memory required for data: 2138702592
I0510 16:30:45.163040 39557 layer_factory.hpp:77] Creating layer conv3_1_em
I0510 16:30:45.163048 39557 net.cpp:84] Creating Layer conv3_1_em
I0510 16:30:45.163053 39557 net.cpp:406] conv3_1_em <- conv3_1_dw
I0510 16:30:45.163059 39557 net.cpp:380] conv3_1_em -> conv3_1_em
I0510 16:30:45.164418 39557 net.cpp:122] Setting up conv3_1_em
I0510 16:30:45.164444 39557 net.cpp:129] Top shape: 64 128 14 12 (1376256)
I0510 16:30:45.164459 39557 net.cpp:137] Memory required for data: 2144207616
I0510 16:30:45.164466 39557 layer_factory.hpp:77] Creating layer conv3_1_em/bn
I0510 16:30:45.164475 39557 net.cpp:84] Creating Layer conv3_1_em/bn
I0510 16:30:45.164479 39557 net.cpp:406] conv3_1_em/bn <- conv3_1_em
I0510 16:30:45.164486 39557 net.cpp:367] conv3_1_em/bn -> conv3_1_em (in-place)
I0510 16:30:45.164690 39557 net.cpp:122] Setting up conv3_1_em/bn
I0510 16:30:45.164700 39557 net.cpp:129] Top shape: 64 128 14 12 (1376256)
I0510 16:30:45.164703 39557 net.cpp:137] Memory required for data: 2149712640
I0510 16:30:45.164712 39557 layer_factory.hpp:77] Creating layer conv3_1_em/scale
I0510 16:30:45.164721 39557 net.cpp:84] Creating Layer conv3_1_em/scale
I0510 16:30:45.164724 39557 net.cpp:406] conv3_1_em/scale <- conv3_1_em
I0510 16:30:45.164729 39557 net.cpp:367] conv3_1_em/scale -> conv3_1_em (in-place)
I0510 16:30:45.164775 39557 layer_factory.hpp:77] Creating layer conv3_1_em/scale
I0510 16:30:45.164896 39557 net.cpp:122] Setting up conv3_1_em/scale
I0510 16:30:45.164904 39557 net.cpp:129] Top shape: 64 128 14 12 (1376256)
I0510 16:30:45.164907 39557 net.cpp:137] Memory required for data: 2155217664
I0510 16:30:45.164912 39557 layer_factory.hpp:77] Creating layer res3_1
I0510 16:30:45.164921 39557 net.cpp:84] Creating Layer res3_1
I0510 16:30:45.164924 39557 net.cpp:406] res3_1 <- conv3_em_conv3_em/scale_0_split_1
I0510 16:30:45.164929 39557 net.cpp:406] res3_1 <- conv3_1_em
I0510 16:30:45.164935 39557 net.cpp:380] res3_1 -> res3_1
I0510 16:30:45.164963 39557 net.cpp:122] Setting up res3_1
I0510 16:30:45.164969 39557 net.cpp:129] Top shape: 64 128 14 12 (1376256)
I0510 16:30:45.164973 39557 net.cpp:137] Memory required for data: 2160722688
I0510 16:30:45.164975 39557 layer_factory.hpp:77] Creating layer res3_1_res3_1_0_split
I0510 16:30:45.164985 39557 net.cpp:84] Creating Layer res3_1_res3_1_0_split
I0510 16:30:45.164989 39557 net.cpp:406] res3_1_res3_1_0_split <- res3_1
I0510 16:30:45.164994 39557 net.cpp:380] res3_1_res3_1_0_split -> res3_1_res3_1_0_split_0
I0510 16:30:45.165001 39557 net.cpp:380] res3_1_res3_1_0_split -> res3_1_res3_1_0_split_1
I0510 16:30:45.165040 39557 net.cpp:122] Setting up res3_1_res3_1_0_split
I0510 16:30:45.165048 39557 net.cpp:129] Top shape: 64 128 14 12 (1376256)
I0510 16:30:45.165052 39557 net.cpp:129] Top shape: 64 128 14 12 (1376256)
I0510 16:30:45.165055 39557 net.cpp:137] Memory required for data: 2171732736
I0510 16:30:45.165058 39557 layer_factory.hpp:77] Creating layer conv3_2_ex
I0510 16:30:45.165066 39557 net.cpp:84] Creating Layer conv3_2_ex
I0510 16:30:45.165069 39557 net.cpp:406] conv3_2_ex <- res3_1_res3_1_0_split_0
I0510 16:30:45.165077 39557 net.cpp:380] conv3_2_ex -> conv3_2_ex
I0510 16:30:45.166404 39557 net.cpp:122] Setting up conv3_2_ex
I0510 16:30:45.166429 39557 net.cpp:129] Top shape: 64 256 14 12 (2752512)
I0510 16:30:45.166434 39557 net.cpp:137] Memory required for data: 2182742784
I0510 16:30:45.166440 39557 layer_factory.hpp:77] Creating layer conv3_2_ex/bn
I0510 16:30:45.166450 39557 net.cpp:84] Creating Layer conv3_2_ex/bn
I0510 16:30:45.166455 39557 net.cpp:406] conv3_2_ex/bn <- conv3_2_ex
I0510 16:30:45.166461 39557 net.cpp:367] conv3_2_ex/bn -> conv3_2_ex (in-place)
I0510 16:30:45.166668 39557 net.cpp:122] Setting up conv3_2_ex/bn
I0510 16:30:45.166677 39557 net.cpp:129] Top shape: 64 256 14 12 (2752512)
I0510 16:30:45.166682 39557 net.cpp:137] Memory required for data: 2193752832
I0510 16:30:45.166688 39557 layer_factory.hpp:77] Creating layer conv3_2_ex/scale
I0510 16:30:45.166698 39557 net.cpp:84] Creating Layer conv3_2_ex/scale
I0510 16:30:45.166702 39557 net.cpp:406] conv3_2_ex/scale <- conv3_2_ex
I0510 16:30:45.166707 39557 net.cpp:367] conv3_2_ex/scale -> conv3_2_ex (in-place)
I0510 16:30:45.166755 39557 layer_factory.hpp:77] Creating layer conv3_2_ex/scale
I0510 16:30:45.166874 39557 net.cpp:122] Setting up conv3_2_ex/scale
I0510 16:30:45.166883 39557 net.cpp:129] Top shape: 64 256 14 12 (2752512)
I0510 16:30:45.166887 39557 net.cpp:137] Memory required for data: 2204762880
I0510 16:30:45.166903 39557 layer_factory.hpp:77] Creating layer relu3_2_ex
I0510 16:30:45.166909 39557 net.cpp:84] Creating Layer relu3_2_ex
I0510 16:30:45.166913 39557 net.cpp:406] relu3_2_ex <- conv3_2_ex
I0510 16:30:45.166919 39557 net.cpp:367] relu3_2_ex -> conv3_2_ex (in-place)
I0510 16:30:45.167034 39557 net.cpp:122] Setting up relu3_2_ex
I0510 16:30:45.167043 39557 net.cpp:129] Top shape: 64 256 14 12 (2752512)
I0510 16:30:45.167047 39557 net.cpp:137] Memory required for data: 2215772928
I0510 16:30:45.167052 39557 layer_factory.hpp:77] Creating layer conv3_2_dw
I0510 16:30:45.167060 39557 net.cpp:84] Creating Layer conv3_2_dw
I0510 16:30:45.167063 39557 net.cpp:406] conv3_2_dw <- conv3_2_ex
I0510 16:30:45.167069 39557 net.cpp:380] conv3_2_dw -> conv3_2_dw
I0510 16:30:45.167281 39557 net.cpp:122] Setting up conv3_2_dw
I0510 16:30:45.167290 39557 net.cpp:129] Top shape: 64 256 14 12 (2752512)
I0510 16:30:45.167294 39557 net.cpp:137] Memory required for data: 2226782976
I0510 16:30:45.167299 39557 layer_factory.hpp:77] Creating layer conv3_2_dw/bn
I0510 16:30:45.167306 39557 net.cpp:84] Creating Layer conv3_2_dw/bn
I0510 16:30:45.167310 39557 net.cpp:406] conv3_2_dw/bn <- conv3_2_dw
I0510 16:30:45.167315 39557 net.cpp:367] conv3_2_dw/bn -> conv3_2_dw (in-place)
I0510 16:30:45.167522 39557 net.cpp:122] Setting up conv3_2_dw/bn
I0510 16:30:45.167531 39557 net.cpp:129] Top shape: 64 256 14 12 (2752512)
I0510 16:30:45.167534 39557 net.cpp:137] Memory required for data: 2237793024
I0510 16:30:45.167543 39557 layer_factory.hpp:77] Creating layer conv3_2_dw/scale
I0510 16:30:45.167551 39557 net.cpp:84] Creating Layer conv3_2_dw/scale
I0510 16:30:45.167553 39557 net.cpp:406] conv3_2_dw/scale <- conv3_2_dw
I0510 16:30:45.167560 39557 net.cpp:367] conv3_2_dw/scale -> conv3_2_dw (in-place)
I0510 16:30:45.167605 39557 layer_factory.hpp:77] Creating layer conv3_2_dw/scale
I0510 16:30:45.167726 39557 net.cpp:122] Setting up conv3_2_dw/scale
I0510 16:30:45.167734 39557 net.cpp:129] Top shape: 64 256 14 12 (2752512)
I0510 16:30:45.167737 39557 net.cpp:137] Memory required for data: 2248803072
I0510 16:30:45.167743 39557 layer_factory.hpp:77] Creating layer relu3_2_dw
I0510 16:30:45.167750 39557 net.cpp:84] Creating Layer relu3_2_dw
I0510 16:30:45.167753 39557 net.cpp:406] relu3_2_dw <- conv3_2_dw
I0510 16:30:45.167758 39557 net.cpp:367] relu3_2_dw -> conv3_2_dw (in-place)
I0510 16:30:45.167881 39557 net.cpp:122] Setting up relu3_2_dw
I0510 16:30:45.167891 39557 net.cpp:129] Top shape: 64 256 14 12 (2752512)
I0510 16:30:45.167893 39557 net.cpp:137] Memory required for data: 2259813120
I0510 16:30:45.167897 39557 layer_factory.hpp:77] Creating layer conv3_2_em
I0510 16:30:45.167907 39557 net.cpp:84] Creating Layer conv3_2_em
I0510 16:30:45.167910 39557 net.cpp:406] conv3_2_em <- conv3_2_dw
I0510 16:30:45.167917 39557 net.cpp:380] conv3_2_em -> conv3_2_em
I0510 16:30:45.169239 39557 net.cpp:122] Setting up conv3_2_em
I0510 16:30:45.169263 39557 net.cpp:129] Top shape: 64 128 14 12 (1376256)
I0510 16:30:45.169266 39557 net.cpp:137] Memory required for data: 2265318144
I0510 16:30:45.169275 39557 layer_factory.hpp:77] Creating layer conv3_2_em/bn
I0510 16:30:45.169284 39557 net.cpp:84] Creating Layer conv3_2_em/bn
I0510 16:30:45.169288 39557 net.cpp:406] conv3_2_em/bn <- conv3_2_em
I0510 16:30:45.169293 39557 net.cpp:367] conv3_2_em/bn -> conv3_2_em (in-place)
I0510 16:30:45.169497 39557 net.cpp:122] Setting up conv3_2_em/bn
I0510 16:30:45.169505 39557 net.cpp:129] Top shape: 64 128 14 12 (1376256)
I0510 16:30:45.169508 39557 net.cpp:137] Memory required for data: 2270823168
I0510 16:30:45.169517 39557 layer_factory.hpp:77] Creating layer conv3_2_em/scale
I0510 16:30:45.169523 39557 net.cpp:84] Creating Layer conv3_2_em/scale
I0510 16:30:45.169525 39557 net.cpp:406] conv3_2_em/scale <- conv3_2_em
I0510 16:30:45.169530 39557 net.cpp:367] conv3_2_em/scale -> conv3_2_em (in-place)
I0510 16:30:45.169577 39557 layer_factory.hpp:77] Creating layer conv3_2_em/scale
I0510 16:30:45.169693 39557 net.cpp:122] Setting up conv3_2_em/scale
I0510 16:30:45.169716 39557 net.cpp:129] Top shape: 64 128 14 12 (1376256)
I0510 16:30:45.169720 39557 net.cpp:137] Memory required for data: 2276328192
I0510 16:30:45.169726 39557 layer_factory.hpp:77] Creating layer res3_2
I0510 16:30:45.169735 39557 net.cpp:84] Creating Layer res3_2
I0510 16:30:45.169739 39557 net.cpp:406] res3_2 <- res3_1_res3_1_0_split_1
I0510 16:30:45.169744 39557 net.cpp:406] res3_2 <- conv3_2_em
I0510 16:30:45.169749 39557 net.cpp:380] res3_2 -> res3_2
I0510 16:30:45.169780 39557 net.cpp:122] Setting up res3_2
I0510 16:30:45.169788 39557 net.cpp:129] Top shape: 64 128 14 12 (1376256)
I0510 16:30:45.169791 39557 net.cpp:137] Memory required for data: 2281833216
I0510 16:30:45.169795 39557 layer_factory.hpp:77] Creating layer res3_2_res3_2_0_split
I0510 16:30:45.169800 39557 net.cpp:84] Creating Layer res3_2_res3_2_0_split
I0510 16:30:45.169803 39557 net.cpp:406] res3_2_res3_2_0_split <- res3_2
I0510 16:30:45.169808 39557 net.cpp:380] res3_2_res3_2_0_split -> res3_2_res3_2_0_split_0
I0510 16:30:45.169816 39557 net.cpp:380] res3_2_res3_2_0_split -> res3_2_res3_2_0_split_1
I0510 16:30:45.169853 39557 net.cpp:122] Setting up res3_2_res3_2_0_split
I0510 16:30:45.169862 39557 net.cpp:129] Top shape: 64 128 14 12 (1376256)
I0510 16:30:45.169865 39557 net.cpp:129] Top shape: 64 128 14 12 (1376256)
I0510 16:30:45.169867 39557 net.cpp:137] Memory required for data: 2292843264
I0510 16:30:45.169870 39557 layer_factory.hpp:77] Creating layer conv3_3_ex
I0510 16:30:45.169880 39557 net.cpp:84] Creating Layer conv3_3_ex
I0510 16:30:45.169884 39557 net.cpp:406] conv3_3_ex <- res3_2_res3_2_0_split_0
I0510 16:30:45.169890 39557 net.cpp:380] conv3_3_ex -> conv3_3_ex
I0510 16:30:45.171545 39557 net.cpp:122] Setting up conv3_3_ex
I0510 16:30:45.171561 39557 net.cpp:129] Top shape: 64 256 14 12 (2752512)
I0510 16:30:45.171564 39557 net.cpp:137] Memory required for data: 2303853312
I0510 16:30:45.171571 39557 layer_factory.hpp:77] Creating layer conv3_3_ex/bn
I0510 16:30:45.171581 39557 net.cpp:84] Creating Layer conv3_3_ex/bn
I0510 16:30:45.171586 39557 net.cpp:406] conv3_3_ex/bn <- conv3_3_ex
I0510 16:30:45.171593 39557 net.cpp:367] conv3_3_ex/bn -> conv3_3_ex (in-place)
I0510 16:30:45.171808 39557 net.cpp:122] Setting up conv3_3_ex/bn
I0510 16:30:45.171816 39557 net.cpp:129] Top shape: 64 256 14 12 (2752512)
I0510 16:30:45.171819 39557 net.cpp:137] Memory required for data: 2314863360
I0510 16:30:45.171828 39557 layer_factory.hpp:77] Creating layer conv3_3_ex/scale
I0510 16:30:45.171835 39557 net.cpp:84] Creating Layer conv3_3_ex/scale
I0510 16:30:45.171839 39557 net.cpp:406] conv3_3_ex/scale <- conv3_3_ex
I0510 16:30:45.171844 39557 net.cpp:367] conv3_3_ex/scale -> conv3_3_ex (in-place)
I0510 16:30:45.171891 39557 layer_factory.hpp:77] Creating layer conv3_3_ex/scale
I0510 16:30:45.172019 39557 net.cpp:122] Setting up conv3_3_ex/scale
I0510 16:30:45.172027 39557 net.cpp:129] Top shape: 64 256 14 12 (2752512)
I0510 16:30:45.172030 39557 net.cpp:137] Memory required for data: 2325873408
I0510 16:30:45.172036 39557 layer_factory.hpp:77] Creating layer relu3_3_ex
I0510 16:30:45.172041 39557 net.cpp:84] Creating Layer relu3_3_ex
I0510 16:30:45.172044 39557 net.cpp:406] relu3_3_ex <- conv3_3_ex
I0510 16:30:45.172051 39557 net.cpp:367] relu3_3_ex -> conv3_3_ex (in-place)
I0510 16:30:45.172165 39557 net.cpp:122] Setting up relu3_3_ex
I0510 16:30:45.172175 39557 net.cpp:129] Top shape: 64 256 14 12 (2752512)
I0510 16:30:45.172178 39557 net.cpp:137] Memory required for data: 2336883456
I0510 16:30:45.172183 39557 layer_factory.hpp:77] Creating layer conv3_3_dw
I0510 16:30:45.172194 39557 net.cpp:84] Creating Layer conv3_3_dw
I0510 16:30:45.172196 39557 net.cpp:406] conv3_3_dw <- conv3_3_ex
I0510 16:30:45.172202 39557 net.cpp:380] conv3_3_dw -> conv3_3_dw
I0510 16:30:45.172423 39557 net.cpp:122] Setting up conv3_3_dw
I0510 16:30:45.172433 39557 net.cpp:129] Top shape: 64 256 14 12 (2752512)
I0510 16:30:45.172436 39557 net.cpp:137] Memory required for data: 2347893504
I0510 16:30:45.172441 39557 layer_factory.hpp:77] Creating layer conv3_3_dw/bn
I0510 16:30:45.172458 39557 net.cpp:84] Creating Layer conv3_3_dw/bn
I0510 16:30:45.172462 39557 net.cpp:406] conv3_3_dw/bn <- conv3_3_dw
I0510 16:30:45.172469 39557 net.cpp:367] conv3_3_dw/bn -> conv3_3_dw (in-place)
I0510 16:30:45.172678 39557 net.cpp:122] Setting up conv3_3_dw/bn
I0510 16:30:45.172688 39557 net.cpp:129] Top shape: 64 256 14 12 (2752512)
I0510 16:30:45.172690 39557 net.cpp:137] Memory required for data: 2358903552
I0510 16:30:45.172698 39557 layer_factory.hpp:77] Creating layer conv3_3_dw/scale
I0510 16:30:45.172703 39557 net.cpp:84] Creating Layer conv3_3_dw/scale
I0510 16:30:45.172708 39557 net.cpp:406] conv3_3_dw/scale <- conv3_3_dw
I0510 16:30:45.172714 39557 net.cpp:367] conv3_3_dw/scale -> conv3_3_dw (in-place)
I0510 16:30:45.172757 39557 layer_factory.hpp:77] Creating layer conv3_3_dw/scale
I0510 16:30:45.172879 39557 net.cpp:122] Setting up conv3_3_dw/scale
I0510 16:30:45.172888 39557 net.cpp:129] Top shape: 64 256 14 12 (2752512)
I0510 16:30:45.172891 39557 net.cpp:137] Memory required for data: 2369913600
I0510 16:30:45.172896 39557 layer_factory.hpp:77] Creating layer relu3_3_dw
I0510 16:30:45.172902 39557 net.cpp:84] Creating Layer relu3_3_dw
I0510 16:30:45.172904 39557 net.cpp:406] relu3_3_dw <- conv3_3_dw
I0510 16:30:45.172911 39557 net.cpp:367] relu3_3_dw -> conv3_3_dw (in-place)
I0510 16:30:45.173027 39557 net.cpp:122] Setting up relu3_3_dw
I0510 16:30:45.173036 39557 net.cpp:129] Top shape: 64 256 14 12 (2752512)
I0510 16:30:45.173039 39557 net.cpp:137] Memory required for data: 2380923648
I0510 16:30:45.173045 39557 layer_factory.hpp:77] Creating layer conv3_3_em
I0510 16:30:45.173055 39557 net.cpp:84] Creating Layer conv3_3_em
I0510 16:30:45.173059 39557 net.cpp:406] conv3_3_em <- conv3_3_dw
I0510 16:30:45.173065 39557 net.cpp:380] conv3_3_em -> conv3_3_em
I0510 16:30:45.175480 39557 net.cpp:122] Setting up conv3_3_em
I0510 16:30:45.175494 39557 net.cpp:129] Top shape: 64 128 14 12 (1376256)
I0510 16:30:45.175508 39557 net.cpp:137] Memory required for data: 2386428672
I0510 16:30:45.175513 39557 layer_factory.hpp:77] Creating layer conv3_3_em/bn
I0510 16:30:45.175523 39557 net.cpp:84] Creating Layer conv3_3_em/bn
I0510 16:30:45.175526 39557 net.cpp:406] conv3_3_em/bn <- conv3_3_em
I0510 16:30:45.175534 39557 net.cpp:367] conv3_3_em/bn -> conv3_3_em (in-place)
I0510 16:30:45.175732 39557 net.cpp:122] Setting up conv3_3_em/bn
I0510 16:30:45.175741 39557 net.cpp:129] Top shape: 64 128 14 12 (1376256)
I0510 16:30:45.175745 39557 net.cpp:137] Memory required for data: 2391933696
I0510 16:30:45.175751 39557 layer_factory.hpp:77] Creating layer conv3_3_em/scale
I0510 16:30:45.175762 39557 net.cpp:84] Creating Layer conv3_3_em/scale
I0510 16:30:45.175766 39557 net.cpp:406] conv3_3_em/scale <- conv3_3_em
I0510 16:30:45.175771 39557 net.cpp:367] conv3_3_em/scale -> conv3_3_em (in-place)
I0510 16:30:45.175815 39557 layer_factory.hpp:77] Creating layer conv3_3_em/scale
I0510 16:30:45.175935 39557 net.cpp:122] Setting up conv3_3_em/scale
I0510 16:30:45.175942 39557 net.cpp:129] Top shape: 64 128 14 12 (1376256)
I0510 16:30:45.175945 39557 net.cpp:137] Memory required for data: 2397438720
I0510 16:30:45.175951 39557 layer_factory.hpp:77] Creating layer res3_3
I0510 16:30:45.175958 39557 net.cpp:84] Creating Layer res3_3
I0510 16:30:45.175961 39557 net.cpp:406] res3_3 <- res3_2_res3_2_0_split_1
I0510 16:30:45.175966 39557 net.cpp:406] res3_3 <- conv3_3_em
I0510 16:30:45.175971 39557 net.cpp:380] res3_3 -> res3_3
I0510 16:30:45.175998 39557 net.cpp:122] Setting up res3_3
I0510 16:30:45.176007 39557 net.cpp:129] Top shape: 64 128 14 12 (1376256)
I0510 16:30:45.176009 39557 net.cpp:137] Memory required for data: 2402943744
I0510 16:30:45.176012 39557 layer_factory.hpp:77] Creating layer res3_3_res3_3_0_split
I0510 16:30:45.176017 39557 net.cpp:84] Creating Layer res3_3_res3_3_0_split
I0510 16:30:45.176019 39557 net.cpp:406] res3_3_res3_3_0_split <- res3_3
I0510 16:30:45.176026 39557 net.cpp:380] res3_3_res3_3_0_split -> res3_3_res3_3_0_split_0
I0510 16:30:45.176033 39557 net.cpp:380] res3_3_res3_3_0_split -> res3_3_res3_3_0_split_1
I0510 16:30:45.176085 39557 net.cpp:122] Setting up res3_3_res3_3_0_split
I0510 16:30:45.176095 39557 net.cpp:129] Top shape: 64 128 14 12 (1376256)
I0510 16:30:45.176098 39557 net.cpp:129] Top shape: 64 128 14 12 (1376256)
I0510 16:30:45.176100 39557 net.cpp:137] Memory required for data: 2413953792
I0510 16:30:45.176103 39557 layer_factory.hpp:77] Creating layer conv3_4_ex
I0510 16:30:45.176113 39557 net.cpp:84] Creating Layer conv3_4_ex
I0510 16:30:45.176117 39557 net.cpp:406] conv3_4_ex <- res3_3_res3_3_0_split_0
I0510 16:30:45.176127 39557 net.cpp:380] conv3_4_ex -> conv3_4_ex
I0510 16:30:45.177351 39557 net.cpp:122] Setting up conv3_4_ex
I0510 16:30:45.177366 39557 net.cpp:129] Top shape: 64 256 14 12 (2752512)
I0510 16:30:45.177378 39557 net.cpp:137] Memory required for data: 2424963840
I0510 16:30:45.177383 39557 layer_factory.hpp:77] Creating layer conv3_4_ex/bn
I0510 16:30:45.177392 39557 net.cpp:84] Creating Layer conv3_4_ex/bn
I0510 16:30:45.177397 39557 net.cpp:406] conv3_4_ex/bn <- conv3_4_ex
I0510 16:30:45.177415 39557 net.cpp:367] conv3_4_ex/bn -> conv3_4_ex (in-place)
I0510 16:30:45.177624 39557 net.cpp:122] Setting up conv3_4_ex/bn
I0510 16:30:45.177633 39557 net.cpp:129] Top shape: 64 256 14 12 (2752512)
I0510 16:30:45.177636 39557 net.cpp:137] Memory required for data: 2435973888
I0510 16:30:45.177644 39557 layer_factory.hpp:77] Creating layer conv3_4_ex/scale
I0510 16:30:45.177651 39557 net.cpp:84] Creating Layer conv3_4_ex/scale
I0510 16:30:45.177655 39557 net.cpp:406] conv3_4_ex/scale <- conv3_4_ex
I0510 16:30:45.177660 39557 net.cpp:367] conv3_4_ex/scale -> conv3_4_ex (in-place)
I0510 16:30:45.177706 39557 layer_factory.hpp:77] Creating layer conv3_4_ex/scale
I0510 16:30:45.177827 39557 net.cpp:122] Setting up conv3_4_ex/scale
I0510 16:30:45.177835 39557 net.cpp:129] Top shape: 64 256 14 12 (2752512)
I0510 16:30:45.177839 39557 net.cpp:137] Memory required for data: 2446983936
I0510 16:30:45.177844 39557 layer_factory.hpp:77] Creating layer relu3_4_ex
I0510 16:30:45.177851 39557 net.cpp:84] Creating Layer relu3_4_ex
I0510 16:30:45.177855 39557 net.cpp:406] relu3_4_ex <- conv3_4_ex
I0510 16:30:45.177861 39557 net.cpp:367] relu3_4_ex -> conv3_4_ex (in-place)
I0510 16:30:45.177973 39557 net.cpp:122] Setting up relu3_4_ex
I0510 16:30:45.177983 39557 net.cpp:129] Top shape: 64 256 14 12 (2752512)
I0510 16:30:45.177985 39557 net.cpp:137] Memory required for data: 2457993984
I0510 16:30:45.177992 39557 layer_factory.hpp:77] Creating layer conv3_4_dw
I0510 16:30:45.178007 39557 net.cpp:84] Creating Layer conv3_4_dw
I0510 16:30:45.178012 39557 net.cpp:406] conv3_4_dw <- conv3_4_ex
I0510 16:30:45.178019 39557 net.cpp:380] conv3_4_dw -> conv3_4_dw
I0510 16:30:45.178233 39557 net.cpp:122] Setting up conv3_4_dw
I0510 16:30:45.178243 39557 net.cpp:129] Top shape: 64 256 14 12 (2752512)
I0510 16:30:45.178246 39557 net.cpp:137] Memory required for data: 2469004032
I0510 16:30:45.178251 39557 layer_factory.hpp:77] Creating layer conv3_4_dw/bn
I0510 16:30:45.178259 39557 net.cpp:84] Creating Layer conv3_4_dw/bn
I0510 16:30:45.178263 39557 net.cpp:406] conv3_4_dw/bn <- conv3_4_dw
I0510 16:30:45.178269 39557 net.cpp:367] conv3_4_dw/bn -> conv3_4_dw (in-place)
I0510 16:30:45.178472 39557 net.cpp:122] Setting up conv3_4_dw/bn
I0510 16:30:45.178481 39557 net.cpp:129] Top shape: 64 256 14 12 (2752512)
I0510 16:30:45.178484 39557 net.cpp:137] Memory required for data: 2480014080
I0510 16:30:45.178491 39557 layer_factory.hpp:77] Creating layer conv3_4_dw/scale
I0510 16:30:45.178500 39557 net.cpp:84] Creating Layer conv3_4_dw/scale
I0510 16:30:45.178504 39557 net.cpp:406] conv3_4_dw/scale <- conv3_4_dw
I0510 16:30:45.178508 39557 net.cpp:367] conv3_4_dw/scale -> conv3_4_dw (in-place)
I0510 16:30:45.178555 39557 layer_factory.hpp:77] Creating layer conv3_4_dw/scale
I0510 16:30:45.178674 39557 net.cpp:122] Setting up conv3_4_dw/scale
I0510 16:30:45.178683 39557 net.cpp:129] Top shape: 64 256 14 12 (2752512)
I0510 16:30:45.178685 39557 net.cpp:137] Memory required for data: 2491024128
I0510 16:30:45.178701 39557 layer_factory.hpp:77] Creating layer relu3_4_dw
I0510 16:30:45.178707 39557 net.cpp:84] Creating Layer relu3_4_dw
I0510 16:30:45.178711 39557 net.cpp:406] relu3_4_dw <- conv3_4_dw
I0510 16:30:45.178717 39557 net.cpp:367] relu3_4_dw -> conv3_4_dw (in-place)
I0510 16:30:45.178831 39557 net.cpp:122] Setting up relu3_4_dw
I0510 16:30:45.178840 39557 net.cpp:129] Top shape: 64 256 14 12 (2752512)
I0510 16:30:45.178843 39557 net.cpp:137] Memory required for data: 2502034176
I0510 16:30:45.178848 39557 layer_factory.hpp:77] Creating layer conv3_4_em
I0510 16:30:45.178858 39557 net.cpp:84] Creating Layer conv3_4_em
I0510 16:30:45.178861 39557 net.cpp:406] conv3_4_em <- conv3_4_dw
I0510 16:30:45.178866 39557 net.cpp:380] conv3_4_em -> conv3_4_em
I0510 16:30:45.180209 39557 net.cpp:122] Setting up conv3_4_em
I0510 16:30:45.180223 39557 net.cpp:129] Top shape: 64 128 14 12 (1376256)
I0510 16:30:45.180238 39557 net.cpp:137] Memory required for data: 2507539200
I0510 16:30:45.180243 39557 layer_factory.hpp:77] Creating layer conv3_4_em/bn
I0510 16:30:45.180251 39557 net.cpp:84] Creating Layer conv3_4_em/bn
I0510 16:30:45.180255 39557 net.cpp:406] conv3_4_em/bn <- conv3_4_em
I0510 16:30:45.180263 39557 net.cpp:367] conv3_4_em/bn -> conv3_4_em (in-place)
I0510 16:30:45.180474 39557 net.cpp:122] Setting up conv3_4_em/bn
I0510 16:30:45.180482 39557 net.cpp:129] Top shape: 64 128 14 12 (1376256)
I0510 16:30:45.180485 39557 net.cpp:137] Memory required for data: 2513044224
I0510 16:30:45.180492 39557 layer_factory.hpp:77] Creating layer conv3_4_em/scale
I0510 16:30:45.180498 39557 net.cpp:84] Creating Layer conv3_4_em/scale
I0510 16:30:45.180501 39557 net.cpp:406] conv3_4_em/scale <- conv3_4_em
I0510 16:30:45.180508 39557 net.cpp:367] conv3_4_em/scale -> conv3_4_em (in-place)
I0510 16:30:45.180557 39557 layer_factory.hpp:77] Creating layer conv3_4_em/scale
I0510 16:30:45.180678 39557 net.cpp:122] Setting up conv3_4_em/scale
I0510 16:30:45.180686 39557 net.cpp:129] Top shape: 64 128 14 12 (1376256)
I0510 16:30:45.180690 39557 net.cpp:137] Memory required for data: 2518549248
I0510 16:30:45.180696 39557 layer_factory.hpp:77] Creating layer res3_4
I0510 16:30:45.180701 39557 net.cpp:84] Creating Layer res3_4
I0510 16:30:45.180704 39557 net.cpp:406] res3_4 <- res3_3_res3_3_0_split_1
I0510 16:30:45.180708 39557 net.cpp:406] res3_4 <- conv3_4_em
I0510 16:30:45.180716 39557 net.cpp:380] res3_4 -> res3_4
I0510 16:30:45.180744 39557 net.cpp:122] Setting up res3_4
I0510 16:30:45.180752 39557 net.cpp:129] Top shape: 64 128 14 12 (1376256)
I0510 16:30:45.180754 39557 net.cpp:137] Memory required for data: 2524054272
I0510 16:30:45.180757 39557 layer_factory.hpp:77] Creating layer res3_4_res3_4_0_split
I0510 16:30:45.180764 39557 net.cpp:84] Creating Layer res3_4_res3_4_0_split
I0510 16:30:45.180768 39557 net.cpp:406] res3_4_res3_4_0_split <- res3_4
I0510 16:30:45.180775 39557 net.cpp:380] res3_4_res3_4_0_split -> res3_4_res3_4_0_split_0
I0510 16:30:45.180781 39557 net.cpp:380] res3_4_res3_4_0_split -> res3_4_res3_4_0_split_1
I0510 16:30:45.180822 39557 net.cpp:122] Setting up res3_4_res3_4_0_split
I0510 16:30:45.180830 39557 net.cpp:129] Top shape: 64 128 14 12 (1376256)
I0510 16:30:45.180835 39557 net.cpp:129] Top shape: 64 128 14 12 (1376256)
I0510 16:30:45.180836 39557 net.cpp:137] Memory required for data: 2535064320
I0510 16:30:45.180840 39557 layer_factory.hpp:77] Creating layer conv3_5_ex
I0510 16:30:45.180847 39557 net.cpp:84] Creating Layer conv3_5_ex
I0510 16:30:45.180850 39557 net.cpp:406] conv3_5_ex <- res3_4_res3_4_0_split_0
I0510 16:30:45.180860 39557 net.cpp:380] conv3_5_ex -> conv3_5_ex
I0510 16:30:45.182209 39557 net.cpp:122] Setting up conv3_5_ex
I0510 16:30:45.182224 39557 net.cpp:129] Top shape: 64 256 14 12 (2752512)
I0510 16:30:45.182226 39557 net.cpp:137] Memory required for data: 2546074368
I0510 16:30:45.182232 39557 layer_factory.hpp:77] Creating layer conv3_5_ex/bn
I0510 16:30:45.182253 39557 net.cpp:84] Creating Layer conv3_5_ex/bn
I0510 16:30:45.182258 39557 net.cpp:406] conv3_5_ex/bn <- conv3_5_ex
I0510 16:30:45.182278 39557 net.cpp:367] conv3_5_ex/bn -> conv3_5_ex (in-place)
I0510 16:30:45.182499 39557 net.cpp:122] Setting up conv3_5_ex/bn
I0510 16:30:45.182509 39557 net.cpp:129] Top shape: 64 256 14 12 (2752512)
I0510 16:30:45.182525 39557 net.cpp:137] Memory required for data: 2557084416
I0510 16:30:45.182533 39557 layer_factory.hpp:77] Creating layer conv3_5_ex/scale
I0510 16:30:45.182540 39557 net.cpp:84] Creating Layer conv3_5_ex/scale
I0510 16:30:45.182544 39557 net.cpp:406] conv3_5_ex/scale <- conv3_5_ex
I0510 16:30:45.182549 39557 net.cpp:367] conv3_5_ex/scale -> conv3_5_ex (in-place)
I0510 16:30:45.182595 39557 layer_factory.hpp:77] Creating layer conv3_5_ex/scale
I0510 16:30:45.182718 39557 net.cpp:122] Setting up conv3_5_ex/scale
I0510 16:30:45.182725 39557 net.cpp:129] Top shape: 64 256 14 12 (2752512)
I0510 16:30:45.182729 39557 net.cpp:137] Memory required for data: 2568094464
I0510 16:30:45.182736 39557 layer_factory.hpp:77] Creating layer relu3_5_ex
I0510 16:30:45.182744 39557 net.cpp:84] Creating Layer relu3_5_ex
I0510 16:30:45.182747 39557 net.cpp:406] relu3_5_ex <- conv3_5_ex
I0510 16:30:45.182751 39557 net.cpp:367] relu3_5_ex -> conv3_5_ex (in-place)
I0510 16:30:45.182868 39557 net.cpp:122] Setting up relu3_5_ex
I0510 16:30:45.182878 39557 net.cpp:129] Top shape: 64 256 14 12 (2752512)
I0510 16:30:45.182880 39557 net.cpp:137] Memory required for data: 2579104512
I0510 16:30:45.182884 39557 layer_factory.hpp:77] Creating layer conv3_5_dw
I0510 16:30:45.182893 39557 net.cpp:84] Creating Layer conv3_5_dw
I0510 16:30:45.182896 39557 net.cpp:406] conv3_5_dw <- conv3_5_ex
I0510 16:30:45.182902 39557 net.cpp:380] conv3_5_dw -> conv3_5_dw
I0510 16:30:45.183132 39557 net.cpp:122] Setting up conv3_5_dw
I0510 16:30:45.183142 39557 net.cpp:129] Top shape: 64 256 14 12 (2752512)
I0510 16:30:45.183145 39557 net.cpp:137] Memory required for data: 2590114560
I0510 16:30:45.183151 39557 layer_factory.hpp:77] Creating layer conv3_5_dw/bn
I0510 16:30:45.183158 39557 net.cpp:84] Creating Layer conv3_5_dw/bn
I0510 16:30:45.183161 39557 net.cpp:406] conv3_5_dw/bn <- conv3_5_dw
I0510 16:30:45.183168 39557 net.cpp:367] conv3_5_dw/bn -> conv3_5_dw (in-place)
I0510 16:30:45.183404 39557 net.cpp:122] Setting up conv3_5_dw/bn
I0510 16:30:45.183414 39557 net.cpp:129] Top shape: 64 256 14 12 (2752512)
I0510 16:30:45.183418 39557 net.cpp:137] Memory required for data: 2601124608
I0510 16:30:45.183424 39557 layer_factory.hpp:77] Creating layer conv3_5_dw/scale
I0510 16:30:45.183430 39557 net.cpp:84] Creating Layer conv3_5_dw/scale
I0510 16:30:45.183434 39557 net.cpp:406] conv3_5_dw/scale <- conv3_5_dw
I0510 16:30:45.183440 39557 net.cpp:367] conv3_5_dw/scale -> conv3_5_dw (in-place)
I0510 16:30:45.183483 39557 layer_factory.hpp:77] Creating layer conv3_5_dw/scale
I0510 16:30:45.183601 39557 net.cpp:122] Setting up conv3_5_dw/scale
I0510 16:30:45.183611 39557 net.cpp:129] Top shape: 64 256 14 12 (2752512)
I0510 16:30:45.183614 39557 net.cpp:137] Memory required for data: 2612134656
I0510 16:30:45.183620 39557 layer_factory.hpp:77] Creating layer relu3_5_dw
I0510 16:30:45.183625 39557 net.cpp:84] Creating Layer relu3_5_dw
I0510 16:30:45.183629 39557 net.cpp:406] relu3_5_dw <- conv3_5_dw
I0510 16:30:45.183632 39557 net.cpp:367] relu3_5_dw -> conv3_5_dw (in-place)
I0510 16:30:45.183745 39557 net.cpp:122] Setting up relu3_5_dw
I0510 16:30:45.183754 39557 net.cpp:129] Top shape: 64 256 14 12 (2752512)
I0510 16:30:45.183758 39557 net.cpp:137] Memory required for data: 2623144704
I0510 16:30:45.183761 39557 layer_factory.hpp:77] Creating layer conv3_5_em
I0510 16:30:45.183771 39557 net.cpp:84] Creating Layer conv3_5_em
I0510 16:30:45.183774 39557 net.cpp:406] conv3_5_em <- conv3_5_dw
I0510 16:30:45.183781 39557 net.cpp:380] conv3_5_em -> conv3_5_em
I0510 16:30:45.185156 39557 net.cpp:122] Setting up conv3_5_em
I0510 16:30:45.185179 39557 net.cpp:129] Top shape: 64 128 14 12 (1376256)
I0510 16:30:45.185184 39557 net.cpp:137] Memory required for data: 2628649728
I0510 16:30:45.185189 39557 layer_factory.hpp:77] Creating layer conv3_5_em/bn
I0510 16:30:45.185212 39557 net.cpp:84] Creating Layer conv3_5_em/bn
I0510 16:30:45.185217 39557 net.cpp:406] conv3_5_em/bn <- conv3_5_em
I0510 16:30:45.185225 39557 net.cpp:367] conv3_5_em/bn -> conv3_5_em (in-place)
I0510 16:30:45.185432 39557 net.cpp:122] Setting up conv3_5_em/bn
I0510 16:30:45.185441 39557 net.cpp:129] Top shape: 64 128 14 12 (1376256)
I0510 16:30:45.185444 39557 net.cpp:137] Memory required for data: 2634154752
I0510 16:30:45.185451 39557 layer_factory.hpp:77] Creating layer conv3_5_em/scale
I0510 16:30:45.185461 39557 net.cpp:84] Creating Layer conv3_5_em/scale
I0510 16:30:45.185463 39557 net.cpp:406] conv3_5_em/scale <- conv3_5_em
I0510 16:30:45.185468 39557 net.cpp:367] conv3_5_em/scale -> conv3_5_em (in-place)
I0510 16:30:45.185514 39557 layer_factory.hpp:77] Creating layer conv3_5_em/scale
I0510 16:30:45.185637 39557 net.cpp:122] Setting up conv3_5_em/scale
I0510 16:30:45.185645 39557 net.cpp:129] Top shape: 64 128 14 12 (1376256)
I0510 16:30:45.185648 39557 net.cpp:137] Memory required for data: 2639659776
I0510 16:30:45.185653 39557 layer_factory.hpp:77] Creating layer res3_5
I0510 16:30:45.185663 39557 net.cpp:84] Creating Layer res3_5
I0510 16:30:45.185667 39557 net.cpp:406] res3_5 <- res3_4_res3_4_0_split_1
I0510 16:30:45.185672 39557 net.cpp:406] res3_5 <- conv3_5_em
I0510 16:30:45.185676 39557 net.cpp:380] res3_5 -> res3_5
I0510 16:30:45.185705 39557 net.cpp:122] Setting up res3_5
I0510 16:30:45.185714 39557 net.cpp:129] Top shape: 64 128 14 12 (1376256)
I0510 16:30:45.185716 39557 net.cpp:137] Memory required for data: 2645164800
I0510 16:30:45.185719 39557 layer_factory.hpp:77] Creating layer res3_5_res3_5_0_split
I0510 16:30:45.185724 39557 net.cpp:84] Creating Layer res3_5_res3_5_0_split
I0510 16:30:45.185727 39557 net.cpp:406] res3_5_res3_5_0_split <- res3_5
I0510 16:30:45.185735 39557 net.cpp:380] res3_5_res3_5_0_split -> res3_5_res3_5_0_split_0
I0510 16:30:45.185742 39557 net.cpp:380] res3_5_res3_5_0_split -> res3_5_res3_5_0_split_1
I0510 16:30:45.185781 39557 net.cpp:122] Setting up res3_5_res3_5_0_split
I0510 16:30:45.185788 39557 net.cpp:129] Top shape: 64 128 14 12 (1376256)
I0510 16:30:45.185792 39557 net.cpp:129] Top shape: 64 128 14 12 (1376256)
I0510 16:30:45.185796 39557 net.cpp:137] Memory required for data: 2656174848
I0510 16:30:45.185798 39557 layer_factory.hpp:77] Creating layer conv3_6_ex
I0510 16:30:45.185806 39557 net.cpp:84] Creating Layer conv3_6_ex
I0510 16:30:45.185809 39557 net.cpp:406] conv3_6_ex <- res3_5_res3_5_0_split_0
I0510 16:30:45.185817 39557 net.cpp:380] conv3_6_ex -> conv3_6_ex
I0510 16:30:45.187150 39557 net.cpp:122] Setting up conv3_6_ex
I0510 16:30:45.187165 39557 net.cpp:129] Top shape: 64 256 14 12 (2752512)
I0510 16:30:45.187178 39557 net.cpp:137] Memory required for data: 2667184896
I0510 16:30:45.187183 39557 layer_factory.hpp:77] Creating layer conv3_6_ex/bn
I0510 16:30:45.187196 39557 net.cpp:84] Creating Layer conv3_6_ex/bn
I0510 16:30:45.187201 39557 net.cpp:406] conv3_6_ex/bn <- conv3_6_ex
I0510 16:30:45.187207 39557 net.cpp:367] conv3_6_ex/bn -> conv3_6_ex (in-place)
I0510 16:30:45.187427 39557 net.cpp:122] Setting up conv3_6_ex/bn
I0510 16:30:45.187436 39557 net.cpp:129] Top shape: 64 256 14 12 (2752512)
I0510 16:30:45.187439 39557 net.cpp:137] Memory required for data: 2678194944
I0510 16:30:45.187446 39557 layer_factory.hpp:77] Creating layer conv3_6_ex/scale
I0510 16:30:45.187455 39557 net.cpp:84] Creating Layer conv3_6_ex/scale
I0510 16:30:45.187458 39557 net.cpp:406] conv3_6_ex/scale <- conv3_6_ex
I0510 16:30:45.187463 39557 net.cpp:367] conv3_6_ex/scale -> conv3_6_ex (in-place)
I0510 16:30:45.187511 39557 layer_factory.hpp:77] Creating layer conv3_6_ex/scale
I0510 16:30:45.187647 39557 net.cpp:122] Setting up conv3_6_ex/scale
I0510 16:30:45.187656 39557 net.cpp:129] Top shape: 64 256 14 12 (2752512)
I0510 16:30:45.187659 39557 net.cpp:137] Memory required for data: 2689204992
I0510 16:30:45.187664 39557 layer_factory.hpp:77] Creating layer relu3_6_ex
I0510 16:30:45.187672 39557 net.cpp:84] Creating Layer relu3_6_ex
I0510 16:30:45.187688 39557 net.cpp:406] relu3_6_ex <- conv3_6_ex
I0510 16:30:45.187696 39557 net.cpp:367] relu3_6_ex -> conv3_6_ex (in-place)
I0510 16:30:45.187815 39557 net.cpp:122] Setting up relu3_6_ex
I0510 16:30:45.187825 39557 net.cpp:129] Top shape: 64 256 14 12 (2752512)
I0510 16:30:45.187829 39557 net.cpp:137] Memory required for data: 2700215040
I0510 16:30:45.187834 39557 layer_factory.hpp:77] Creating layer conv3_6_dw
I0510 16:30:45.187844 39557 net.cpp:84] Creating Layer conv3_6_dw
I0510 16:30:45.187847 39557 net.cpp:406] conv3_6_dw <- conv3_6_ex
I0510 16:30:45.187852 39557 net.cpp:380] conv3_6_dw -> conv3_6_dw
I0510 16:30:45.188077 39557 net.cpp:122] Setting up conv3_6_dw
I0510 16:30:45.188087 39557 net.cpp:129] Top shape: 64 256 14 12 (2752512)
I0510 16:30:45.188091 39557 net.cpp:137] Memory required for data: 2711225088
I0510 16:30:45.188096 39557 layer_factory.hpp:77] Creating layer conv3_6_dw/bn
I0510 16:30:45.188100 39557 net.cpp:84] Creating Layer conv3_6_dw/bn
I0510 16:30:45.188103 39557 net.cpp:406] conv3_6_dw/bn <- conv3_6_dw
I0510 16:30:45.188110 39557 net.cpp:367] conv3_6_dw/bn -> conv3_6_dw (in-place)
I0510 16:30:45.188318 39557 net.cpp:122] Setting up conv3_6_dw/bn
I0510 16:30:45.188328 39557 net.cpp:129] Top shape: 64 256 14 12 (2752512)
I0510 16:30:45.188330 39557 net.cpp:137] Memory required for data: 2722235136
I0510 16:30:45.188338 39557 layer_factory.hpp:77] Creating layer conv3_6_dw/scale
I0510 16:30:45.188344 39557 net.cpp:84] Creating Layer conv3_6_dw/scale
I0510 16:30:45.188346 39557 net.cpp:406] conv3_6_dw/scale <- conv3_6_dw
I0510 16:30:45.188354 39557 net.cpp:367] conv3_6_dw/scale -> conv3_6_dw (in-place)
I0510 16:30:45.188396 39557 layer_factory.hpp:77] Creating layer conv3_6_dw/scale
I0510 16:30:45.188520 39557 net.cpp:122] Setting up conv3_6_dw/scale
I0510 16:30:45.188529 39557 net.cpp:129] Top shape: 64 256 14 12 (2752512)
I0510 16:30:45.188531 39557 net.cpp:137] Memory required for data: 2733245184
I0510 16:30:45.188537 39557 layer_factory.hpp:77] Creating layer relu3_6_dw
I0510 16:30:45.188544 39557 net.cpp:84] Creating Layer relu3_6_dw
I0510 16:30:45.188547 39557 net.cpp:406] relu3_6_dw <- conv3_6_dw
I0510 16:30:45.188554 39557 net.cpp:367] relu3_6_dw -> conv3_6_dw (in-place)
I0510 16:30:45.188670 39557 net.cpp:122] Setting up relu3_6_dw
I0510 16:30:45.188680 39557 net.cpp:129] Top shape: 64 256 14 12 (2752512)
I0510 16:30:45.188683 39557 net.cpp:137] Memory required for data: 2744255232
I0510 16:30:45.188688 39557 layer_factory.hpp:77] Creating layer conv3_6_em
I0510 16:30:45.188695 39557 net.cpp:84] Creating Layer conv3_6_em
I0510 16:30:45.188699 39557 net.cpp:406] conv3_6_em <- conv3_6_dw
I0510 16:30:45.188709 39557 net.cpp:380] conv3_6_em -> conv3_6_em
I0510 16:30:45.190098 39557 net.cpp:122] Setting up conv3_6_em
I0510 16:30:45.190112 39557 net.cpp:129] Top shape: 64 128 14 12 (1376256)
I0510 16:30:45.190115 39557 net.cpp:137] Memory required for data: 2749760256
I0510 16:30:45.190120 39557 layer_factory.hpp:77] Creating layer conv3_6_em/bn
I0510 16:30:45.190131 39557 net.cpp:84] Creating Layer conv3_6_em/bn
I0510 16:30:45.190135 39557 net.cpp:406] conv3_6_em/bn <- conv3_6_em
I0510 16:30:45.190140 39557 net.cpp:367] conv3_6_em/bn -> conv3_6_em (in-place)
I0510 16:30:45.190356 39557 net.cpp:122] Setting up conv3_6_em/bn
I0510 16:30:45.190366 39557 net.cpp:129] Top shape: 64 128 14 12 (1376256)
I0510 16:30:45.190369 39557 net.cpp:137] Memory required for data: 2755265280
I0510 16:30:45.190376 39557 layer_factory.hpp:77] Creating layer conv3_6_em/scale
I0510 16:30:45.190387 39557 net.cpp:84] Creating Layer conv3_6_em/scale
I0510 16:30:45.190392 39557 net.cpp:406] conv3_6_em/scale <- conv3_6_em
I0510 16:30:45.190397 39557 net.cpp:367] conv3_6_em/scale -> conv3_6_em (in-place)
I0510 16:30:45.190445 39557 layer_factory.hpp:77] Creating layer conv3_6_em/scale
I0510 16:30:45.190569 39557 net.cpp:122] Setting up conv3_6_em/scale
I0510 16:30:45.190578 39557 net.cpp:129] Top shape: 64 128 14 12 (1376256)
I0510 16:30:45.190582 39557 net.cpp:137] Memory required for data: 2760770304
I0510 16:30:45.190598 39557 layer_factory.hpp:77] Creating layer res3_6
I0510 16:30:45.190604 39557 net.cpp:84] Creating Layer res3_6
I0510 16:30:45.190610 39557 net.cpp:406] res3_6 <- res3_5_res3_5_0_split_1
I0510 16:30:45.190615 39557 net.cpp:406] res3_6 <- conv3_6_em
I0510 16:30:45.190619 39557 net.cpp:380] res3_6 -> res3_6
I0510 16:30:45.190649 39557 net.cpp:122] Setting up res3_6
I0510 16:30:45.190657 39557 net.cpp:129] Top shape: 64 128 14 12 (1376256)
I0510 16:30:45.190660 39557 net.cpp:137] Memory required for data: 2766275328
I0510 16:30:45.190663 39557 layer_factory.hpp:77] Creating layer conv4_ex
I0510 16:30:45.190675 39557 net.cpp:84] Creating Layer conv4_ex
I0510 16:30:45.190678 39557 net.cpp:406] conv4_ex <- res3_6
I0510 16:30:45.190685 39557 net.cpp:380] conv4_ex -> conv4_ex
I0510 16:30:45.193234 39557 net.cpp:122] Setting up conv4_ex
I0510 16:30:45.193259 39557 net.cpp:129] Top shape: 64 512 14 12 (5505024)
I0510 16:30:45.193262 39557 net.cpp:137] Memory required for data: 2788295424
I0510 16:30:45.193270 39557 layer_factory.hpp:77] Creating layer conv4_ex/bn
I0510 16:30:45.193279 39557 net.cpp:84] Creating Layer conv4_ex/bn
I0510 16:30:45.193282 39557 net.cpp:406] conv4_ex/bn <- conv4_ex
I0510 16:30:45.193289 39557 net.cpp:367] conv4_ex/bn -> conv4_ex (in-place)
I0510 16:30:45.193503 39557 net.cpp:122] Setting up conv4_ex/bn
I0510 16:30:45.193513 39557 net.cpp:129] Top shape: 64 512 14 12 (5505024)
I0510 16:30:45.193516 39557 net.cpp:137] Memory required for data: 2810315520
I0510 16:30:45.193539 39557 layer_factory.hpp:77] Creating layer conv4_ex/scale
I0510 16:30:45.193547 39557 net.cpp:84] Creating Layer conv4_ex/scale
I0510 16:30:45.193550 39557 net.cpp:406] conv4_ex/scale <- conv4_ex
I0510 16:30:45.193555 39557 net.cpp:367] conv4_ex/scale -> conv4_ex (in-place)
I0510 16:30:45.193596 39557 layer_factory.hpp:77] Creating layer conv4_ex/scale
I0510 16:30:45.193735 39557 net.cpp:122] Setting up conv4_ex/scale
I0510 16:30:45.193744 39557 net.cpp:129] Top shape: 64 512 14 12 (5505024)
I0510 16:30:45.193747 39557 net.cpp:137] Memory required for data: 2832335616
I0510 16:30:45.193753 39557 layer_factory.hpp:77] Creating layer relu4_ex
I0510 16:30:45.193758 39557 net.cpp:84] Creating Layer relu4_ex
I0510 16:30:45.193761 39557 net.cpp:406] relu4_ex <- conv4_ex
I0510 16:30:45.193768 39557 net.cpp:367] relu4_ex -> conv4_ex (in-place)
I0510 16:30:45.193923 39557 net.cpp:122] Setting up relu4_ex
I0510 16:30:45.193933 39557 net.cpp:129] Top shape: 64 512 14 12 (5505024)
I0510 16:30:45.193935 39557 net.cpp:137] Memory required for data: 2854355712
I0510 16:30:45.193939 39557 layer_factory.hpp:77] Creating layer conv4_dw
I0510 16:30:45.193948 39557 net.cpp:84] Creating Layer conv4_dw
I0510 16:30:45.193951 39557 net.cpp:406] conv4_dw <- conv4_ex
I0510 16:30:45.193958 39557 net.cpp:380] conv4_dw -> conv4_dw
I0510 16:30:45.194185 39557 net.cpp:122] Setting up conv4_dw
I0510 16:30:45.194195 39557 net.cpp:129] Top shape: 64 512 7 6 (1376256)
I0510 16:30:45.194198 39557 net.cpp:137] Memory required for data: 2859860736
I0510 16:30:45.194202 39557 layer_factory.hpp:77] Creating layer conv4_dw/bn
I0510 16:30:45.194208 39557 net.cpp:84] Creating Layer conv4_dw/bn
I0510 16:30:45.194211 39557 net.cpp:406] conv4_dw/bn <- conv4_dw
I0510 16:30:45.194216 39557 net.cpp:367] conv4_dw/bn -> conv4_dw (in-place)
I0510 16:30:45.194416 39557 net.cpp:122] Setting up conv4_dw/bn
I0510 16:30:45.194424 39557 net.cpp:129] Top shape: 64 512 7 6 (1376256)
I0510 16:30:45.194427 39557 net.cpp:137] Memory required for data: 2865365760
I0510 16:30:45.194445 39557 layer_factory.hpp:77] Creating layer conv4_dw/scale
I0510 16:30:45.194453 39557 net.cpp:84] Creating Layer conv4_dw/scale
I0510 16:30:45.194456 39557 net.cpp:406] conv4_dw/scale <- conv4_dw
I0510 16:30:45.194461 39557 net.cpp:367] conv4_dw/scale -> conv4_dw (in-place)
I0510 16:30:45.194502 39557 layer_factory.hpp:77] Creating layer conv4_dw/scale
I0510 16:30:45.194631 39557 net.cpp:122] Setting up conv4_dw/scale
I0510 16:30:45.194640 39557 net.cpp:129] Top shape: 64 512 7 6 (1376256)
I0510 16:30:45.194654 39557 net.cpp:137] Memory required for data: 2870870784
I0510 16:30:45.194663 39557 layer_factory.hpp:77] Creating layer relu4_dw
I0510 16:30:45.194667 39557 net.cpp:84] Creating Layer relu4_dw
I0510 16:30:45.194684 39557 net.cpp:406] relu4_dw <- conv4_dw
I0510 16:30:45.194690 39557 net.cpp:367] relu4_dw -> conv4_dw (in-place)
I0510 16:30:45.194803 39557 net.cpp:122] Setting up relu4_dw
I0510 16:30:45.194813 39557 net.cpp:129] Top shape: 64 512 7 6 (1376256)
I0510 16:30:45.194814 39557 net.cpp:137] Memory required for data: 2876375808
I0510 16:30:45.194819 39557 layer_factory.hpp:77] Creating layer conv4_em
I0510 16:30:45.194829 39557 net.cpp:84] Creating Layer conv4_em
I0510 16:30:45.194833 39557 net.cpp:406] conv4_em <- conv4_dw
I0510 16:30:45.194839 39557 net.cpp:380] conv4_em -> conv4_em
I0510 16:30:45.196355 39557 net.cpp:122] Setting up conv4_em
I0510 16:30:45.196368 39557 net.cpp:129] Top shape: 64 128 7 6 (344064)
I0510 16:30:45.196382 39557 net.cpp:137] Memory required for data: 2877752064
I0510 16:30:45.196388 39557 layer_factory.hpp:77] Creating layer conv4_em/bn
I0510 16:30:45.196393 39557 net.cpp:84] Creating Layer conv4_em/bn
I0510 16:30:45.196398 39557 net.cpp:406] conv4_em/bn <- conv4_em
I0510 16:30:45.196415 39557 net.cpp:367] conv4_em/bn -> conv4_em (in-place)
I0510 16:30:45.196632 39557 net.cpp:122] Setting up conv4_em/bn
I0510 16:30:45.196641 39557 net.cpp:129] Top shape: 64 128 7 6 (344064)
I0510 16:30:45.196645 39557 net.cpp:137] Memory required for data: 2879128320
I0510 16:30:45.196653 39557 layer_factory.hpp:77] Creating layer conv4_em/scale
I0510 16:30:45.196660 39557 net.cpp:84] Creating Layer conv4_em/scale
I0510 16:30:45.196662 39557 net.cpp:406] conv4_em/scale <- conv4_em
I0510 16:30:45.196669 39557 net.cpp:367] conv4_em/scale -> conv4_em (in-place)
I0510 16:30:45.196724 39557 layer_factory.hpp:77] Creating layer conv4_em/scale
I0510 16:30:45.196846 39557 net.cpp:122] Setting up conv4_em/scale
I0510 16:30:45.196854 39557 net.cpp:129] Top shape: 64 128 7 6 (344064)
I0510 16:30:45.196856 39557 net.cpp:137] Memory required for data: 2880504576
I0510 16:30:45.196862 39557 layer_factory.hpp:77] Creating layer conv4_em_conv4_em/scale_0_split
I0510 16:30:45.196874 39557 net.cpp:84] Creating Layer conv4_em_conv4_em/scale_0_split
I0510 16:30:45.196877 39557 net.cpp:406] conv4_em_conv4_em/scale_0_split <- conv4_em
I0510 16:30:45.196885 39557 net.cpp:380] conv4_em_conv4_em/scale_0_split -> conv4_em_conv4_em/scale_0_split_0
I0510 16:30:45.196893 39557 net.cpp:380] conv4_em_conv4_em/scale_0_split -> conv4_em_conv4_em/scale_0_split_1
I0510 16:30:45.196936 39557 net.cpp:122] Setting up conv4_em_conv4_em/scale_0_split
I0510 16:30:45.196944 39557 net.cpp:129] Top shape: 64 128 7 6 (344064)
I0510 16:30:45.196949 39557 net.cpp:129] Top shape: 64 128 7 6 (344064)
I0510 16:30:45.196950 39557 net.cpp:137] Memory required for data: 2883257088
I0510 16:30:45.196954 39557 layer_factory.hpp:77] Creating layer conv4_1_ex
I0510 16:30:45.196961 39557 net.cpp:84] Creating Layer conv4_1_ex
I0510 16:30:45.196964 39557 net.cpp:406] conv4_1_ex <- conv4_em_conv4_em/scale_0_split_0
I0510 16:30:45.196972 39557 net.cpp:380] conv4_1_ex -> conv4_1_ex
I0510 16:30:45.198271 39557 net.cpp:122] Setting up conv4_1_ex
I0510 16:30:45.198284 39557 net.cpp:129] Top shape: 64 256 7 6 (688128)
I0510 16:30:45.198297 39557 net.cpp:137] Memory required for data: 2886009600
I0510 16:30:45.198304 39557 layer_factory.hpp:77] Creating layer conv4_1_ex/bn
I0510 16:30:45.198313 39557 net.cpp:84] Creating Layer conv4_1_ex/bn
I0510 16:30:45.198318 39557 net.cpp:406] conv4_1_ex/bn <- conv4_1_ex
I0510 16:30:45.198324 39557 net.cpp:367] conv4_1_ex/bn -> conv4_1_ex (in-place)
I0510 16:30:45.198537 39557 net.cpp:122] Setting up conv4_1_ex/bn
I0510 16:30:45.198546 39557 net.cpp:129] Top shape: 64 256 7 6 (688128)
I0510 16:30:45.198549 39557 net.cpp:137] Memory required for data: 2888762112
I0510 16:30:45.198556 39557 layer_factory.hpp:77] Creating layer conv4_1_ex/scale
I0510 16:30:45.198565 39557 net.cpp:84] Creating Layer conv4_1_ex/scale
I0510 16:30:45.198580 39557 net.cpp:406] conv4_1_ex/scale <- conv4_1_ex
I0510 16:30:45.198586 39557 net.cpp:367] conv4_1_ex/scale -> conv4_1_ex (in-place)
I0510 16:30:45.198635 39557 layer_factory.hpp:77] Creating layer conv4_1_ex/scale
I0510 16:30:45.198760 39557 net.cpp:122] Setting up conv4_1_ex/scale
I0510 16:30:45.198770 39557 net.cpp:129] Top shape: 64 256 7 6 (688128)
I0510 16:30:45.198771 39557 net.cpp:137] Memory required for data: 2891514624
I0510 16:30:45.198777 39557 layer_factory.hpp:77] Creating layer relu4_1_ex
I0510 16:30:45.198784 39557 net.cpp:84] Creating Layer relu4_1_ex
I0510 16:30:45.198787 39557 net.cpp:406] relu4_1_ex <- conv4_1_ex
I0510 16:30:45.198793 39557 net.cpp:367] relu4_1_ex -> conv4_1_ex (in-place)
I0510 16:30:45.198889 39557 net.cpp:122] Setting up relu4_1_ex
I0510 16:30:45.198896 39557 net.cpp:129] Top shape: 64 256 7 6 (688128)
I0510 16:30:45.198899 39557 net.cpp:137] Memory required for data: 2894267136
I0510 16:30:45.198904 39557 layer_factory.hpp:77] Creating layer conv4_1_dw
I0510 16:30:45.198915 39557 net.cpp:84] Creating Layer conv4_1_dw
I0510 16:30:45.198918 39557 net.cpp:406] conv4_1_dw <- conv4_1_ex
I0510 16:30:45.198923 39557 net.cpp:380] conv4_1_dw -> conv4_1_dw
I0510 16:30:45.199154 39557 net.cpp:122] Setting up conv4_1_dw
I0510 16:30:45.199164 39557 net.cpp:129] Top shape: 64 256 7 6 (688128)
I0510 16:30:45.199167 39557 net.cpp:137] Memory required for data: 2897019648
I0510 16:30:45.199172 39557 layer_factory.hpp:77] Creating layer conv4_1_dw/bn
I0510 16:30:45.199177 39557 net.cpp:84] Creating Layer conv4_1_dw/bn
I0510 16:30:45.199180 39557 net.cpp:406] conv4_1_dw/bn <- conv4_1_dw
I0510 16:30:45.199187 39557 net.cpp:367] conv4_1_dw/bn -> conv4_1_dw (in-place)
I0510 16:30:45.199405 39557 net.cpp:122] Setting up conv4_1_dw/bn
I0510 16:30:45.199414 39557 net.cpp:129] Top shape: 64 256 7 6 (688128)
I0510 16:30:45.199417 39557 net.cpp:137] Memory required for data: 2899772160
I0510 16:30:45.199435 39557 layer_factory.hpp:77] Creating layer conv4_1_dw/scale
I0510 16:30:45.199442 39557 net.cpp:84] Creating Layer conv4_1_dw/scale
I0510 16:30:45.199446 39557 net.cpp:406] conv4_1_dw/scale <- conv4_1_dw
I0510 16:30:45.199452 39557 net.cpp:367] conv4_1_dw/scale -> conv4_1_dw (in-place)
I0510 16:30:45.199496 39557 layer_factory.hpp:77] Creating layer conv4_1_dw/scale
I0510 16:30:45.199623 39557 net.cpp:122] Setting up conv4_1_dw/scale
I0510 16:30:45.199632 39557 net.cpp:129] Top shape: 64 256 7 6 (688128)
I0510 16:30:45.199635 39557 net.cpp:137] Memory required for data: 2902524672
I0510 16:30:45.199641 39557 layer_factory.hpp:77] Creating layer relu4_1_dw
I0510 16:30:45.199646 39557 net.cpp:84] Creating Layer relu4_1_dw
I0510 16:30:45.199651 39557 net.cpp:406] relu4_1_dw <- conv4_1_dw
I0510 16:30:45.199656 39557 net.cpp:367] relu4_1_dw -> conv4_1_dw (in-place)
I0510 16:30:45.199753 39557 net.cpp:122] Setting up relu4_1_dw
I0510 16:30:45.199760 39557 net.cpp:129] Top shape: 64 256 7 6 (688128)
I0510 16:30:45.199764 39557 net.cpp:137] Memory required for data: 2905277184
I0510 16:30:45.199769 39557 layer_factory.hpp:77] Creating layer conv4_1_em
I0510 16:30:45.199775 39557 net.cpp:84] Creating Layer conv4_1_em
I0510 16:30:45.199779 39557 net.cpp:406] conv4_1_em <- conv4_1_dw
I0510 16:30:45.199786 39557 net.cpp:380] conv4_1_em -> conv4_1_em
I0510 16:30:45.201117 39557 net.cpp:122] Setting up conv4_1_em
I0510 16:30:45.201131 39557 net.cpp:129] Top shape: 64 128 7 6 (344064)
I0510 16:30:45.201144 39557 net.cpp:137] Memory required for data: 2906653440
I0510 16:30:45.201150 39557 layer_factory.hpp:77] Creating layer conv4_1_em/bn
I0510 16:30:45.201159 39557 net.cpp:84] Creating Layer conv4_1_em/bn
I0510 16:30:45.201164 39557 net.cpp:406] conv4_1_em/bn <- conv4_1_em
I0510 16:30:45.201169 39557 net.cpp:367] conv4_1_em/bn -> conv4_1_em (in-place)
I0510 16:30:45.201381 39557 net.cpp:122] Setting up conv4_1_em/bn
I0510 16:30:45.201390 39557 net.cpp:129] Top shape: 64 128 7 6 (344064)
I0510 16:30:45.201393 39557 net.cpp:137] Memory required for data: 2908029696
I0510 16:30:45.201401 39557 layer_factory.hpp:77] Creating layer conv4_1_em/scale
I0510 16:30:45.201422 39557 net.cpp:84] Creating Layer conv4_1_em/scale
I0510 16:30:45.201429 39557 net.cpp:406] conv4_1_em/scale <- conv4_1_em
I0510 16:30:45.201434 39557 net.cpp:367] conv4_1_em/scale -> conv4_1_em (in-place)
I0510 16:30:45.201485 39557 layer_factory.hpp:77] Creating layer conv4_1_em/scale
I0510 16:30:45.201608 39557 net.cpp:122] Setting up conv4_1_em/scale
I0510 16:30:45.201617 39557 net.cpp:129] Top shape: 64 128 7 6 (344064)
I0510 16:30:45.201619 39557 net.cpp:137] Memory required for data: 2909405952
I0510 16:30:45.201625 39557 layer_factory.hpp:77] Creating layer res4_1
I0510 16:30:45.201630 39557 net.cpp:84] Creating Layer res4_1
I0510 16:30:45.201634 39557 net.cpp:406] res4_1 <- conv4_em_conv4_em/scale_0_split_1
I0510 16:30:45.201638 39557 net.cpp:406] res4_1 <- conv4_1_em
I0510 16:30:45.201645 39557 net.cpp:380] res4_1 -> res4_1
I0510 16:30:45.201671 39557 net.cpp:122] Setting up res4_1
I0510 16:30:45.201678 39557 net.cpp:129] Top shape: 64 128 7 6 (344064)
I0510 16:30:45.201681 39557 net.cpp:137] Memory required for data: 2910782208
I0510 16:30:45.201684 39557 layer_factory.hpp:77] Creating layer res4_1_res4_1_0_split
I0510 16:30:45.201692 39557 net.cpp:84] Creating Layer res4_1_res4_1_0_split
I0510 16:30:45.201696 39557 net.cpp:406] res4_1_res4_1_0_split <- res4_1
I0510 16:30:45.201701 39557 net.cpp:380] res4_1_res4_1_0_split -> res4_1_res4_1_0_split_0
I0510 16:30:45.201707 39557 net.cpp:380] res4_1_res4_1_0_split -> res4_1_res4_1_0_split_1
I0510 16:30:45.201746 39557 net.cpp:122] Setting up res4_1_res4_1_0_split
I0510 16:30:45.201755 39557 net.cpp:129] Top shape: 64 128 7 6 (344064)
I0510 16:30:45.201757 39557 net.cpp:129] Top shape: 64 128 7 6 (344064)
I0510 16:30:45.201761 39557 net.cpp:137] Memory required for data: 2913534720
I0510 16:30:45.201764 39557 layer_factory.hpp:77] Creating layer conv4_2_ex
I0510 16:30:45.201776 39557 net.cpp:84] Creating Layer conv4_2_ex
I0510 16:30:45.201781 39557 net.cpp:406] conv4_2_ex <- res4_1_res4_1_0_split_0
I0510 16:30:45.201787 39557 net.cpp:380] conv4_2_ex -> conv4_2_ex
I0510 16:30:45.203121 39557 net.cpp:122] Setting up conv4_2_ex
I0510 16:30:45.203145 39557 net.cpp:129] Top shape: 64 256 7 6 (688128)
I0510 16:30:45.203148 39557 net.cpp:137] Memory required for data: 2916287232
I0510 16:30:45.203155 39557 layer_factory.hpp:77] Creating layer conv4_2_ex/bn
I0510 16:30:45.203163 39557 net.cpp:84] Creating Layer conv4_2_ex/bn
I0510 16:30:45.203167 39557 net.cpp:406] conv4_2_ex/bn <- conv4_2_ex
I0510 16:30:45.203172 39557 net.cpp:367] conv4_2_ex/bn -> conv4_2_ex (in-place)
I0510 16:30:45.203416 39557 net.cpp:122] Setting up conv4_2_ex/bn
I0510 16:30:45.203426 39557 net.cpp:129] Top shape: 64 256 7 6 (688128)
I0510 16:30:45.203429 39557 net.cpp:137] Memory required for data: 2919039744
I0510 16:30:45.203438 39557 layer_factory.hpp:77] Creating layer conv4_2_ex/scale
I0510 16:30:45.203444 39557 net.cpp:84] Creating Layer conv4_2_ex/scale
I0510 16:30:45.203446 39557 net.cpp:406] conv4_2_ex/scale <- conv4_2_ex
I0510 16:30:45.203451 39557 net.cpp:367] conv4_2_ex/scale -> conv4_2_ex (in-place)
I0510 16:30:45.203500 39557 layer_factory.hpp:77] Creating layer conv4_2_ex/scale
I0510 16:30:45.203626 39557 net.cpp:122] Setting up conv4_2_ex/scale
I0510 16:30:45.203634 39557 net.cpp:129] Top shape: 64 256 7 6 (688128)
I0510 16:30:45.203637 39557 net.cpp:137] Memory required for data: 2921792256
I0510 16:30:45.203642 39557 layer_factory.hpp:77] Creating layer relu4_2_ex
I0510 16:30:45.203651 39557 net.cpp:84] Creating Layer relu4_2_ex
I0510 16:30:45.203655 39557 net.cpp:406] relu4_2_ex <- conv4_2_ex
I0510 16:30:45.203660 39557 net.cpp:367] relu4_2_ex -> conv4_2_ex (in-place)
I0510 16:30:45.203769 39557 net.cpp:122] Setting up relu4_2_ex
I0510 16:30:45.203778 39557 net.cpp:129] Top shape: 64 256 7 6 (688128)
I0510 16:30:45.203780 39557 net.cpp:137] Memory required for data: 2924544768
I0510 16:30:45.203785 39557 layer_factory.hpp:77] Creating layer conv4_2_dw
I0510 16:30:45.203793 39557 net.cpp:84] Creating Layer conv4_2_dw
I0510 16:30:45.203807 39557 net.cpp:406] conv4_2_dw <- conv4_2_ex
I0510 16:30:45.203816 39557 net.cpp:380] conv4_2_dw -> conv4_2_dw
I0510 16:30:45.204054 39557 net.cpp:122] Setting up conv4_2_dw
I0510 16:30:45.204064 39557 net.cpp:129] Top shape: 64 256 7 6 (688128)
I0510 16:30:45.204067 39557 net.cpp:137] Memory required for data: 2927297280
I0510 16:30:45.204072 39557 layer_factory.hpp:77] Creating layer conv4_2_dw/bn
I0510 16:30:45.204080 39557 net.cpp:84] Creating Layer conv4_2_dw/bn
I0510 16:30:45.204084 39557 net.cpp:406] conv4_2_dw/bn <- conv4_2_dw
I0510 16:30:45.204089 39557 net.cpp:367] conv4_2_dw/bn -> conv4_2_dw (in-place)
I0510 16:30:45.204293 39557 net.cpp:122] Setting up conv4_2_dw/bn
I0510 16:30:45.204300 39557 net.cpp:129] Top shape: 64 256 7 6 (688128)
I0510 16:30:45.204308 39557 net.cpp:137] Memory required for data: 2930049792
I0510 16:30:45.204315 39557 layer_factory.hpp:77] Creating layer conv4_2_dw/scale
I0510 16:30:45.204324 39557 net.cpp:84] Creating Layer conv4_2_dw/scale
I0510 16:30:45.204326 39557 net.cpp:406] conv4_2_dw/scale <- conv4_2_dw
I0510 16:30:45.204331 39557 net.cpp:367] conv4_2_dw/scale -> conv4_2_dw (in-place)
I0510 16:30:45.204376 39557 layer_factory.hpp:77] Creating layer conv4_2_dw/scale
I0510 16:30:45.204499 39557 net.cpp:122] Setting up conv4_2_dw/scale
I0510 16:30:45.204507 39557 net.cpp:129] Top shape: 64 256 7 6 (688128)
I0510 16:30:45.204510 39557 net.cpp:137] Memory required for data: 2932802304
I0510 16:30:45.204515 39557 layer_factory.hpp:77] Creating layer relu4_2_dw
I0510 16:30:45.204535 39557 net.cpp:84] Creating Layer relu4_2_dw
I0510 16:30:45.204538 39557 net.cpp:406] relu4_2_dw <- conv4_2_dw
I0510 16:30:45.204546 39557 net.cpp:367] relu4_2_dw -> conv4_2_dw (in-place)
I0510 16:30:45.204656 39557 net.cpp:122] Setting up relu4_2_dw
I0510 16:30:45.204665 39557 net.cpp:129] Top shape: 64 256 7 6 (688128)
I0510 16:30:45.204668 39557 net.cpp:137] Memory required for data: 2935554816
I0510 16:30:45.204672 39557 layer_factory.hpp:77] Creating layer conv4_2_em
I0510 16:30:45.204682 39557 net.cpp:84] Creating Layer conv4_2_em
I0510 16:30:45.204685 39557 net.cpp:406] conv4_2_em <- conv4_2_dw
I0510 16:30:45.204691 39557 net.cpp:380] conv4_2_em -> conv4_2_em
I0510 16:30:45.206064 39557 net.cpp:122] Setting up conv4_2_em
I0510 16:30:45.206090 39557 net.cpp:129] Top shape: 64 128 7 6 (344064)
I0510 16:30:45.206094 39557 net.cpp:137] Memory required for data: 2936931072
I0510 16:30:45.206100 39557 layer_factory.hpp:77] Creating layer conv4_2_em/bn
I0510 16:30:45.206109 39557 net.cpp:84] Creating Layer conv4_2_em/bn
I0510 16:30:45.206112 39557 net.cpp:406] conv4_2_em/bn <- conv4_2_em
I0510 16:30:45.206120 39557 net.cpp:367] conv4_2_em/bn -> conv4_2_em (in-place)
I0510 16:30:45.206346 39557 net.cpp:122] Setting up conv4_2_em/bn
I0510 16:30:45.206356 39557 net.cpp:129] Top shape: 64 128 7 6 (344064)
I0510 16:30:45.206358 39557 net.cpp:137] Memory required for data: 2938307328
I0510 16:30:45.206365 39557 layer_factory.hpp:77] Creating layer conv4_2_em/scale
I0510 16:30:45.206372 39557 net.cpp:84] Creating Layer conv4_2_em/scale
I0510 16:30:45.206375 39557 net.cpp:406] conv4_2_em/scale <- conv4_2_em
I0510 16:30:45.206382 39557 net.cpp:367] conv4_2_em/scale -> conv4_2_em (in-place)
I0510 16:30:45.206427 39557 layer_factory.hpp:77] Creating layer conv4_2_em/scale
I0510 16:30:45.206573 39557 net.cpp:122] Setting up conv4_2_em/scale
I0510 16:30:45.206583 39557 net.cpp:129] Top shape: 64 128 7 6 (344064)
I0510 16:30:45.206585 39557 net.cpp:137] Memory required for data: 2939683584
I0510 16:30:45.206591 39557 layer_factory.hpp:77] Creating layer res4_2
I0510 16:30:45.206596 39557 net.cpp:84] Creating Layer res4_2
I0510 16:30:45.206600 39557 net.cpp:406] res4_2 <- res4_1_res4_1_0_split_1
I0510 16:30:45.206604 39557 net.cpp:406] res4_2 <- conv4_2_em
I0510 16:30:45.206611 39557 net.cpp:380] res4_2 -> res4_2
I0510 16:30:45.206638 39557 net.cpp:122] Setting up res4_2
I0510 16:30:45.206646 39557 net.cpp:129] Top shape: 64 128 7 6 (344064)
I0510 16:30:45.206650 39557 net.cpp:137] Memory required for data: 2941059840
I0510 16:30:45.206665 39557 layer_factory.hpp:77] Creating layer conv5_ex
I0510 16:30:45.206676 39557 net.cpp:84] Creating Layer conv5_ex
I0510 16:30:45.206679 39557 net.cpp:406] conv5_ex <- res4_2
I0510 16:30:45.206688 39557 net.cpp:380] conv5_ex -> conv5_ex
I0510 16:30:45.208248 39557 net.cpp:122] Setting up conv5_ex
I0510 16:30:45.208262 39557 net.cpp:129] Top shape: 64 512 7 6 (1376256)
I0510 16:30:45.208276 39557 net.cpp:137] Memory required for data: 2946564864
I0510 16:30:45.208281 39557 layer_factory.hpp:77] Creating layer conv5_ex/bn
I0510 16:30:45.208290 39557 net.cpp:84] Creating Layer conv5_ex/bn
I0510 16:30:45.208294 39557 net.cpp:406] conv5_ex/bn <- conv5_ex
I0510 16:30:45.208302 39557 net.cpp:367] conv5_ex/bn -> conv5_ex (in-place)
I0510 16:30:45.208521 39557 net.cpp:122] Setting up conv5_ex/bn
I0510 16:30:45.208530 39557 net.cpp:129] Top shape: 64 512 7 6 (1376256)
I0510 16:30:45.208534 39557 net.cpp:137] Memory required for data: 2952069888
I0510 16:30:45.208542 39557 layer_factory.hpp:77] Creating layer conv5_ex/scale
I0510 16:30:45.208551 39557 net.cpp:84] Creating Layer conv5_ex/scale
I0510 16:30:45.208559 39557 net.cpp:406] conv5_ex/scale <- conv5_ex
I0510 16:30:45.208564 39557 net.cpp:367] conv5_ex/scale -> conv5_ex (in-place)
I0510 16:30:45.208607 39557 layer_factory.hpp:77] Creating layer conv5_ex/scale
I0510 16:30:45.208741 39557 net.cpp:122] Setting up conv5_ex/scale
I0510 16:30:45.208750 39557 net.cpp:129] Top shape: 64 512 7 6 (1376256)
I0510 16:30:45.208753 39557 net.cpp:137] Memory required for data: 2957574912
I0510 16:30:45.208760 39557 layer_factory.hpp:77] Creating layer relu5_ex
I0510 16:30:45.208765 39557 net.cpp:84] Creating Layer relu5_ex
I0510 16:30:45.208767 39557 net.cpp:406] relu5_ex <- conv5_ex
I0510 16:30:45.208773 39557 net.cpp:367] relu5_ex -> conv5_ex (in-place)
I0510 16:30:45.208874 39557 net.cpp:122] Setting up relu5_ex
I0510 16:30:45.208883 39557 net.cpp:129] Top shape: 64 512 7 6 (1376256)
I0510 16:30:45.208885 39557 net.cpp:137] Memory required for data: 2963079936
I0510 16:30:45.208890 39557 layer_factory.hpp:77] Creating layer conv5_dw
I0510 16:30:45.208899 39557 net.cpp:84] Creating Layer conv5_dw
I0510 16:30:45.208902 39557 net.cpp:406] conv5_dw <- conv5_ex
I0510 16:30:45.208907 39557 net.cpp:380] conv5_dw -> conv5_dw
I0510 16:30:45.209229 39557 net.cpp:122] Setting up conv5_dw
I0510 16:30:45.209239 39557 net.cpp:129] Top shape: 64 512 1 1 (32768)
I0510 16:30:45.209242 39557 net.cpp:137] Memory required for data: 2963211008
I0510 16:30:45.209249 39557 layer_factory.hpp:77] Creating layer conv5_dw/bn
I0510 16:30:45.209256 39557 net.cpp:84] Creating Layer conv5_dw/bn
I0510 16:30:45.209259 39557 net.cpp:406] conv5_dw/bn <- conv5_dw
I0510 16:30:45.209264 39557 net.cpp:367] conv5_dw/bn -> conv5_dw (in-place)
I0510 16:30:45.209478 39557 net.cpp:122] Setting up conv5_dw/bn
I0510 16:30:45.209486 39557 net.cpp:129] Top shape: 64 512 1 1 (32768)
I0510 16:30:45.209489 39557 net.cpp:137] Memory required for data: 2963342080
I0510 16:30:45.209496 39557 layer_factory.hpp:77] Creating layer conv5_dw/scale
I0510 16:30:45.209501 39557 net.cpp:84] Creating Layer conv5_dw/scale
I0510 16:30:45.209504 39557 net.cpp:406] conv5_dw/scale <- conv5_dw
I0510 16:30:45.209511 39557 net.cpp:367] conv5_dw/scale -> conv5_dw (in-place)
I0510 16:30:45.209549 39557 layer_factory.hpp:77] Creating layer conv5_dw/scale
I0510 16:30:45.209672 39557 net.cpp:122] Setting up conv5_dw/scale
I0510 16:30:45.209681 39557 net.cpp:129] Top shape: 64 512 1 1 (32768)
I0510 16:30:45.209684 39557 net.cpp:137] Memory required for data: 2963473152
I0510 16:30:45.209689 39557 layer_factory.hpp:77] Creating layer fc5
I0510 16:30:45.209699 39557 net.cpp:84] Creating Layer fc5
I0510 16:30:45.209702 39557 net.cpp:406] fc5 <- conv5_dw
I0510 16:30:45.209707 39557 net.cpp:380] fc5 -> fc5
I0510 16:30:45.210114 39557 net.cpp:122] Setting up fc5
I0510 16:30:45.210124 39557 net.cpp:129] Top shape: 64 128 (8192)
I0510 16:30:45.210126 39557 net.cpp:137] Memory required for data: 2963505920
I0510 16:30:45.210142 39557 layer_factory.hpp:77] Creating layer norm1
I0510 16:30:45.210149 39557 net.cpp:84] Creating Layer norm1
I0510 16:30:45.210152 39557 net.cpp:406] norm1 <- fc5
I0510 16:30:45.210157 39557 net.cpp:380] norm1 -> norm1
I0510 16:30:45.210218 39557 net.cpp:122] Setting up norm1
I0510 16:30:45.210227 39557 net.cpp:129] Top shape: 64 128 1 1 (8192)
I0510 16:30:45.210230 39557 net.cpp:137] Memory required for data: 2963538688
I0510 16:30:45.210233 39557 layer_factory.hpp:77] Creating layer fc6_l2
I0510 16:30:45.210242 39557 net.cpp:84] Creating Layer fc6_l2
I0510 16:30:45.210244 39557 net.cpp:406] fc6_l2 <- norm1
I0510 16:30:45.210249 39557 net.cpp:380] fc6_l2 -> fc6
I0510 16:30:45.217748 39557 net.cpp:122] Setting up fc6_l2
I0510 16:30:45.217761 39557 net.cpp:129] Top shape: 64 9131 (584384)
I0510 16:30:45.217775 39557 net.cpp:137] Memory required for data: 2965876224
I0510 16:30:45.217780 39557 layer_factory.hpp:77] Creating layer label_specific_margin
I0510 16:30:45.217787 39557 net.cpp:84] Creating Layer label_specific_margin
I0510 16:30:45.217792 39557 net.cpp:406] label_specific_margin <- fc6
I0510 16:30:45.217797 39557 net.cpp:406] label_specific_margin <- label_data_1_split_0
I0510 16:30:45.217802 39557 net.cpp:380] label_specific_margin -> fc6_margin
I0510 16:30:45.217835 39557 net.cpp:122] Setting up label_specific_margin
I0510 16:30:45.217844 39557 net.cpp:129] Top shape: 64 9131 (584384)
I0510 16:30:45.217846 39557 net.cpp:137] Memory required for data: 2968213760
I0510 16:30:45.217849 39557 layer_factory.hpp:77] Creating layer fc6_margin_scale
I0510 16:30:45.217856 39557 net.cpp:84] Creating Layer fc6_margin_scale
I0510 16:30:45.217860 39557 net.cpp:406] fc6_margin_scale <- fc6_margin
I0510 16:30:45.217865 39557 net.cpp:380] fc6_margin_scale -> fc6_margin_scale
I0510 16:30:45.217975 39557 net.cpp:122] Setting up fc6_margin_scale
I0510 16:30:45.217985 39557 net.cpp:129] Top shape: 64 9131 (584384)
I0510 16:30:45.217988 39557 net.cpp:137] Memory required for data: 2970551296
I0510 16:30:45.217993 39557 layer_factory.hpp:77] Creating layer softmax_loss
I0510 16:30:45.217999 39557 net.cpp:84] Creating Layer softmax_loss
I0510 16:30:45.218003 39557 net.cpp:406] softmax_loss <- fc6_margin_scale
I0510 16:30:45.218008 39557 net.cpp:406] softmax_loss <- label_data_1_split_1
I0510 16:30:45.218014 39557 net.cpp:380] softmax_loss -> softmax_loss
…
